{"format": "graph-model", "generatedBy": "2.7.0", "convertedBy": "TensorFlow.js Converter v3.8.0", "signature": {"inputs": {"input_2:0": {"name": "input_2:0", "dtype": "DT_FLOAT", "tensorShape": {"dim": [{"size": "-1"}, {"size": "1333"}, {"size": "39"}]}}, "input_1:0": {"name": "input_1:0", "dtype": "DT_FLOAT", "tensorShape": {"dim": [{"size": "-1"}, {"size": "1333"}, {"size": "39"}]}}}, "outputs": {"output_1": {"name": "Identity:0", "dtype": "DT_FLOAT", "tensorShape": {"dim": [{"size": "-1"}]}}}}, "modelTopology": {"node": [{"name": "StatefulPartitionedCall/siamese_model/lambda/Mul_1/x", "op": "Const", "attr": {"dtype": {"type": "DT_FLOAT"}, "value": {"tensor": {"dtype": "DT_FLOAT", "tensorShape": {}}}}}, {"name": "StatefulPartitionedCall/siamese_model/bidirectional/forward_rnn/while/loop_counter", "op": "Const", "attr": {"dtype": {"type": "DT_INT32"}, "value": {"tensor": {"dtype": "DT_INT32", "tensorShape": {}}}}}, {"name": "StatefulPartitionedCall/siamese_model/bidirectional/forward_rnn/while/maximum_iterations", "op": "Const", "attr": {"dtype": {"type": "DT_INT32"}, "value": {"tensor": {"dtype": "DT_INT32", "tensorShape": {}}}}}, {"name": "StatefulPartitionedCall/siamese_model/bidirectional/forward_rnn/time", "op": "Const", "attr": {"value": {"tensor": {"dtype": "DT_INT32", "tensorShape": {}}}, "dtype": {"type": "DT_INT32"}}}, {"name": "StatefulPartitionedCall/siamese_model/bidirectional/forward_rnn/TensorArrayV2_1/element_shape", "op": "Const", "attr": {"dtype": {"type": "DT_INT32"}, "value": {"tensor": {"dtype": "DT_INT32", "tensorShape": {"dim": [{"size": "2"}]}}}}}, {"name": "StatefulPartitionedCall/siamese_model/bidirectional/forward_rnn/strided_slice_2/stack", "op": "Const", "attr": {"dtype": {"type": "DT_INT32"}, "value": {"tensor": {"dtype": "DT_INT32", "tensorShape": {"dim": [{"size": "1"}]}}}}}, {"name": "StatefulPartitionedCall/siamese_model/bidirectional/forward_rnn/strided_slice_2/stack_1", "op": "Const", "attr": {"value": {"tensor": {"dtype": "DT_INT32", "tensorShape": {"dim": [{"size": "1"}]}}}, "dtype": {"type": "DT_INT32"}}}, {"name": "StatefulPartitionedCall/siamese_model/bidirectional/forward_rnn/strided_slice_2/stack_2", "op": "Const", "attr": {"dtype": {"type": "DT_INT32"}, "value": {"tensor": {"dtype": "DT_INT32", "tensorShape": {"dim": [{"size": "1"}]}}}}}, {"name": "StatefulPartitionedCall/siamese_model/bidirectional/forward_rnn/stacked_rnn_cells/simple_rnn_cell/MatMul/ReadVariableOp", "op": "Const", "attr": {"dtype": {"type": "DT_FLOAT"}, "value": {"tensor": {"dtype": "DT_FLOAT", "tensorShape": {"dim": [{"size": "39"}, {"size": "50"}]}}}}}, {"name": "StatefulPartitionedCall/siamese_model/bidirectional/forward_rnn/stacked_rnn_cells/simple_rnn_cell/BiasAdd/ReadVariableOp", "op": "Const", "attr": {"dtype": {"type": "DT_FLOAT"}, "value": {"tensor": {"dtype": "DT_FLOAT", "tensorShape": {"dim": [{"size": "50"}]}}}}}, {"name": "StatefulPartitionedCall/siamese_model/bidirectional/forward_rnn/stacked_rnn_cells/simple_rnn_cell/MatMul_1/ReadVariableOp", "op": "Const", "attr": {"dtype": {"type": "DT_FLOAT"}, "value": {"tensor": {"dtype": "DT_FLOAT", "tensorShape": {"dim": [{"size": "50"}, {"size": "50"}]}}}}}, {"name": "StatefulPartitionedCall/siamese_model/bidirectional/forward_rnn/strided_slice/stack", "op": "Const", "attr": {"dtype": {"type": "DT_INT32"}, "value": {"tensor": {"dtype": "DT_INT32", "tensorShape": {"dim": [{"size": "1"}]}}}}}, {"name": "StatefulPartitionedCall/siamese_model/bidirectional/forward_rnn/strided_slice/stack_1", "op": "Const", "attr": {"dtype": {"type": "DT_INT32"}, "value": {"tensor": {"dtype": "DT_INT32", "tensorShape": {"dim": [{"size": "1"}]}}}}}, {"name": "StatefulPartitionedCall/siamese_model/bidirectional/forward_rnn/strided_slice/stack_2", "op": "Const", "attr": {"value": {"tensor": {"dtype": "DT_INT32", "tensorShape": {"dim": [{"size": "1"}]}}}, "dtype": {"type": "DT_INT32"}}}, {"name": "StatefulPartitionedCall/siamese_model/bidirectional/forward_rnn/zeros/packed/1", "op": "Const", "attr": {"value": {"tensor": {"dtype": "DT_INT32", "tensorShape": {}}}, "dtype": {"type": "DT_INT32"}}}, {"name": "StatefulPartitionedCall/siamese_model/bidirectional/forward_rnn/zeros/Const", "op": "Const", "attr": {"dtype": {"type": "DT_FLOAT"}, "value": {"tensor": {"dtype": "DT_FLOAT", "tensorShape": {}}}}}, {"name": "StatefulPartitionedCall/siamese_model/bidirectional/forward_rnn/strided_slice_1/stack", "op": "Const", "attr": {"value": {"tensor": {"dtype": "DT_INT32", "tensorShape": {"dim": [{"size": "1"}]}}}, "dtype": {"type": "DT_INT32"}}}, {"name": "StatefulPartitionedCall/siamese_model/bidirectional/forward_rnn/strided_slice_1/stack_1", "op": "Const", "attr": {"value": {"tensor": {"dtype": "DT_INT32", "tensorShape": {"dim": [{"size": "1"}]}}}, "dtype": {"type": "DT_INT32"}}}, {"name": "StatefulPartitionedCall/siamese_model/bidirectional/forward_rnn/strided_slice_1/stack_2", "op": "Const", "attr": {"dtype": {"type": "DT_INT32"}, "value": {"tensor": {"dtype": "DT_INT32", "tensorShape": {"dim": [{"size": "1"}]}}}}}, {"name": "StatefulPartitionedCall/siamese_model/bidirectional/forward_rnn/transpose/perm", "op": "Const", "attr": {"dtype": {"type": "DT_INT32"}, "value": {"tensor": {"dtype": "DT_INT32", "tensorShape": {"dim": [{"size": "3"}]}}}}}, {"name": "StatefulPartitionedCall/siamese_model/bidirectional/forward_rnn/TensorArrayUnstack/TensorListFromTensor/element_shape", "op": "Const", "attr": {"dtype": {"type": "DT_INT32"}, "value": {"tensor": {"dtype": "DT_INT32", "tensorShape": {"dim": [{"size": "2"}]}}}}}, {"name": "StatefulPartitionedCall/siamese_model/bidirectional/forward_rnn/ExpandDims/dim", "op": "Const", "attr": {"dtype": {"type": "DT_INT32"}, "value": {"tensor": {"dtype": "DT_INT32", "tensorShape": {}}}}}, {"name": "StatefulPartitionedCall/siamese_model/bidirectional/forward_rnn/transpose_1/perm", "op": "Const", "attr": {"dtype": {"type": "DT_INT32"}, "value": {"tensor": {"dtype": "DT_INT32", "tensorShape": {"dim": [{"size": "3"}]}}}}}, {"name": "StatefulPartitionedCall/siamese_model/bidirectional/forward_rnn/TensorArrayUnstack_1/TensorListFromTensor/element_shape", "op": "Const", "attr": {"value": {"tensor": {"dtype": "DT_INT32", "tensorShape": {"dim": [{"size": "2"}]}}}, "dtype": {"type": "DT_INT32"}}}, {"name": "StatefulPartitionedCall/siamese_model/bidirectional/forward_rnn/TensorArrayV2Stack/TensorListStack/element_shape", "op": "Const", "attr": {"dtype": {"type": "DT_INT32"}, "value": {"tensor": {"dtype": "DT_INT32", "tensorShape": {"dim": [{"size": "2"}]}}}}}, {"name": "StatefulPartitionedCall/siamese_model/bidirectional/forward_rnn/strided_slice_3/stack", "op": "Const", "attr": {"dtype": {"type": "DT_INT32"}, "value": {"tensor": {"dtype": "DT_INT32", "tensorShape": {"dim": [{"size": "1"}]}}}}}, {"name": "StatefulPartitionedCall/siamese_model/bidirectional/forward_rnn/strided_slice_3/stack_1", "op": "Const", "attr": {"value": {"tensor": {"dtype": "DT_INT32", "tensorShape": {"dim": [{"size": "1"}]}}}, "dtype": {"type": "DT_INT32"}}}, {"name": "StatefulPartitionedCall/siamese_model/bidirectional/forward_rnn/strided_slice_3/stack_2", "op": "Const", "attr": {"dtype": {"type": "DT_INT32"}, "value": {"tensor": {"dtype": "DT_INT32", "tensorShape": {"dim": [{"size": "1"}]}}}}}, {"name": "StatefulPartitionedCall/siamese_model/bidirectional/backward_rnn/while/loop_counter", "op": "Const", "attr": {"dtype": {"type": "DT_INT32"}, "value": {"tensor": {"dtype": "DT_INT32", "tensorShape": {}}}}}, {"name": "StatefulPartitionedCall/siamese_model/bidirectional/backward_rnn/while/maximum_iterations", "op": "Const", "attr": {"value": {"tensor": {"dtype": "DT_INT32", "tensorShape": {}}}, "dtype": {"type": "DT_INT32"}}}, {"name": "StatefulPartitionedCall/siamese_model/bidirectional/backward_rnn/time", "op": "Const", "attr": {"dtype": {"type": "DT_INT32"}, "value": {"tensor": {"dtype": "DT_INT32", "tensorShape": {}}}}}, {"name": "StatefulPartitionedCall/siamese_model/bidirectional/backward_rnn/TensorArrayV2_1/element_shape", "op": "Const", "attr": {"dtype": {"type": "DT_INT32"}, "value": {"tensor": {"dtype": "DT_INT32", "tensorShape": {"dim": [{"size": "2"}]}}}}}, {"name": "StatefulPartitionedCall/siamese_model/bidirectional/backward_rnn/strided_slice_2/stack", "op": "Const", "attr": {"dtype": {"type": "DT_INT32"}, "value": {"tensor": {"dtype": "DT_INT32", "tensorShape": {"dim": [{"size": "1"}]}}}}}, {"name": "StatefulPartitionedCall/siamese_model/bidirectional/backward_rnn/strided_slice_2/stack_1", "op": "Const", "attr": {"value": {"tensor": {"dtype": "DT_INT32", "tensorShape": {"dim": [{"size": "1"}]}}}, "dtype": {"type": "DT_INT32"}}}, {"name": "StatefulPartitionedCall/siamese_model/bidirectional/backward_rnn/strided_slice_2/stack_2", "op": "Const", "attr": {"dtype": {"type": "DT_INT32"}, "value": {"tensor": {"dtype": "DT_INT32", "tensorShape": {"dim": [{"size": "1"}]}}}}}, {"name": "StatefulPartitionedCall/siamese_model/bidirectional/backward_rnn/stacked_rnn_cells/simple_rnn_cell/MatMul/ReadVariableOp", "op": "Const", "attr": {"dtype": {"type": "DT_FLOAT"}, "value": {"tensor": {"dtype": "DT_FLOAT", "tensorShape": {"dim": [{"size": "39"}, {"size": "50"}]}}}}}, {"name": "StatefulPartitionedCall/siamese_model/bidirectional/backward_rnn/stacked_rnn_cells/simple_rnn_cell/BiasAdd/ReadVariableOp", "op": "Const", "attr": {"dtype": {"type": "DT_FLOAT"}, "value": {"tensor": {"dtype": "DT_FLOAT", "tensorShape": {"dim": [{"size": "50"}]}}}}}, {"name": "StatefulPartitionedCall/siamese_model/bidirectional/backward_rnn/stacked_rnn_cells/simple_rnn_cell/MatMul_1/ReadVariableOp", "op": "Const", "attr": {"dtype": {"type": "DT_FLOAT"}, "value": {"tensor": {"dtype": "DT_FLOAT", "tensorShape": {"dim": [{"size": "50"}, {"size": "50"}]}}}}}, {"name": "StatefulPartitionedCall/siamese_model/bidirectional/backward_rnn/strided_slice/stack", "op": "Const", "attr": {"value": {"tensor": {"dtype": "DT_INT32", "tensorShape": {"dim": [{"size": "1"}]}}}, "dtype": {"type": "DT_INT32"}}}, {"name": "StatefulPartitionedCall/siamese_model/bidirectional/backward_rnn/strided_slice/stack_1", "op": "Const", "attr": {"dtype": {"type": "DT_INT32"}, "value": {"tensor": {"dtype": "DT_INT32", "tensorShape": {"dim": [{"size": "1"}]}}}}}, {"name": "StatefulPartitionedCall/siamese_model/bidirectional/backward_rnn/strided_slice/stack_2", "op": "Const", "attr": {"dtype": {"type": "DT_INT32"}, "value": {"tensor": {"dtype": "DT_INT32", "tensorShape": {"dim": [{"size": "1"}]}}}}}, {"name": "StatefulPartitionedCall/siamese_model/bidirectional/backward_rnn/zeros/packed/1", "op": "Const", "attr": {"value": {"tensor": {"dtype": "DT_INT32", "tensorShape": {}}}, "dtype": {"type": "DT_INT32"}}}, {"name": "StatefulPartitionedCall/siamese_model/bidirectional/backward_rnn/zeros/Const", "op": "Const", "attr": {"value": {"tensor": {"dtype": "DT_FLOAT", "tensorShape": {}}}, "dtype": {"type": "DT_FLOAT"}}}, {"name": "StatefulPartitionedCall/siamese_model/bidirectional/backward_rnn/strided_slice_1/stack", "op": "Const", "attr": {"value": {"tensor": {"dtype": "DT_INT32", "tensorShape": {"dim": [{"size": "1"}]}}}, "dtype": {"type": "DT_INT32"}}}, {"name": "StatefulPartitionedCall/siamese_model/bidirectional/backward_rnn/strided_slice_1/stack_1", "op": "Const", "attr": {"value": {"tensor": {"dtype": "DT_INT32", "tensorShape": {"dim": [{"size": "1"}]}}}, "dtype": {"type": "DT_INT32"}}}, {"name": "StatefulPartitionedCall/siamese_model/bidirectional/backward_rnn/strided_slice_1/stack_2", "op": "Const", "attr": {"value": {"tensor": {"dtype": "DT_INT32", "tensorShape": {"dim": [{"size": "1"}]}}}, "dtype": {"type": "DT_INT32"}}}, {"name": "StatefulPartitionedCall/siamese_model/bidirectional/backward_rnn/transpose/perm", "op": "Const", "attr": {"value": {"tensor": {"dtype": "DT_INT32", "tensorShape": {"dim": [{"size": "3"}]}}}, "dtype": {"type": "DT_INT32"}}}, {"name": "StatefulPartitionedCall/siamese_model/bidirectional/backward_rnn/ReverseV2/axis", "op": "Const", "attr": {"value": {"tensor": {"dtype": "DT_INT32", "tensorShape": {"dim": [{"size": "1"}]}}}, "dtype": {"type": "DT_INT32"}}}, {"name": "StatefulPartitionedCall/siamese_model/bidirectional/backward_rnn/TensorArrayUnstack/TensorListFromTensor/element_shape", "op": "Const", "attr": {"dtype": {"type": "DT_INT32"}, "value": {"tensor": {"dtype": "DT_INT32", "tensorShape": {"dim": [{"size": "2"}]}}}}}, {"name": "StatefulPartitionedCall/siamese_model/masking/NotEqual/y", "op": "Const", "attr": {"dtype": {"type": "DT_FLOAT"}, "value": {"tensor": {"dtype": "DT_FLOAT", "tensorShape": {}}}}}, {"name": "StatefulPartitionedCall/siamese_model/masking/Any/reduction_indices", "op": "Const", "attr": {"dtype": {"type": "DT_INT32"}, "value": {"tensor": {"dtype": "DT_INT32", "tensorShape": {}}}}}, {"name": "StatefulPartitionedCall/siamese_model/bidirectional/backward_rnn/ExpandDims/dim", "op": "Const", "attr": {"value": {"tensor": {"dtype": "DT_INT32", "tensorShape": {}}}, "dtype": {"type": "DT_INT32"}}}, {"name": "StatefulPartitionedCall/siamese_model/bidirectional/backward_rnn/transpose_1/perm", "op": "Const", "attr": {"dtype": {"type": "DT_INT32"}, "value": {"tensor": {"dtype": "DT_INT32", "tensorShape": {"dim": [{"size": "3"}]}}}}}, {"name": "StatefulPartitionedCall/siamese_model/bidirectional/backward_rnn/ReverseV2_1/axis", "op": "Const", "attr": {"dtype": {"type": "DT_INT32"}, "value": {"tensor": {"dtype": "DT_INT32", "tensorShape": {"dim": [{"size": "1"}]}}}}}, {"name": "StatefulPartitionedCall/siamese_model/bidirectional/backward_rnn/TensorArrayUnstack_1/TensorListFromTensor/element_shape", "op": "Const", "attr": {"value": {"tensor": {"dtype": "DT_INT32", "tensorShape": {"dim": [{"size": "2"}]}}}, "dtype": {"type": "DT_INT32"}}}, {"name": "StatefulPartitionedCall/siamese_model/bidirectional/backward_rnn/TensorArrayV2Stack/TensorListStack/element_shape", "op": "Const", "attr": {"value": {"tensor": {"dtype": "DT_INT32", "tensorShape": {"dim": [{"size": "2"}]}}}, "dtype": {"type": "DT_INT32"}}}, {"name": "StatefulPartitionedCall/siamese_model/bidirectional/backward_rnn/strided_slice_3/stack", "op": "Const", "attr": {"dtype": {"type": "DT_INT32"}, "value": {"tensor": {"dtype": "DT_INT32", "tensorShape": {"dim": [{"size": "1"}]}}}}}, {"name": "StatefulPartitionedCall/siamese_model/bidirectional/backward_rnn/strided_slice_3/stack_1", "op": "Const", "attr": {"dtype": {"type": "DT_INT32"}, "value": {"tensor": {"dtype": "DT_INT32", "tensorShape": {"dim": [{"size": "1"}]}}}}}, {"name": "StatefulPartitionedCall/siamese_model/bidirectional/backward_rnn/strided_slice_3/stack_2", "op": "Const", "attr": {"dtype": {"type": "DT_INT32"}, "value": {"tensor": {"dtype": "DT_INT32", "tensorShape": {"dim": [{"size": "1"}]}}}}}, {"name": "StatefulPartitionedCall/siamese_model/bidirectional/concat/axis", "op": "Const", "attr": {"value": {"tensor": {"dtype": "DT_INT32", "tensorShape": {}}}, "dtype": {"type": "DT_INT32"}}}, {"name": "StatefulPartitionedCall/siamese_model/batch_normalization/batchnorm/mul", "op": "Const", "attr": {"dtype": {"type": "DT_FLOAT"}, "value": {"tensor": {"dtype": "DT_FLOAT", "tensorShape": {"dim": [{"size": "100"}]}}}}}, {"name": "StatefulPartitionedCall/siamese_model/batch_normalization/batchnorm/sub", "op": "Const", "attr": {"value": {"tensor": {"dtype": "DT_FLOAT", "tensorShape": {"dim": [{"size": "100"}]}}}, "dtype": {"type": "DT_FLOAT"}}}, {"name": "StatefulPartitionedCall/siamese_model/dense/MatMul/ReadVariableOp", "op": "Const", "attr": {"dtype": {"type": "DT_FLOAT"}, "value": {"tensor": {"dtype": "DT_FLOAT", "tensorShape": {"dim": [{"size": "100"}, {"size": "50"}]}}}}}, {"name": "StatefulPartitionedCall/siamese_model/dense/BiasAdd/ReadVariableOp", "op": "Const", "attr": {"value": {"tensor": {"dtype": "DT_FLOAT", "tensorShape": {"dim": [{"size": "50"}]}}}, "dtype": {"type": "DT_FLOAT"}}}, {"name": "StatefulPartitionedCall/siamese_model/lambda/l2_normalize/Sum/reduction_indices", "op": "Const", "attr": {"dtype": {"type": "DT_INT32"}, "value": {"tensor": {"dtype": "DT_INT32", "tensorShape": {}}}}}, {"name": "StatefulPartitionedCall/siamese_model/lambda/l2_normalize/Maximum/y", "op": "Const", "attr": {"dtype": {"type": "DT_FLOAT"}, "value": {"tensor": {"dtype": "DT_FLOAT", "tensorShape": {}}}}}, {"name": "StatefulPartitionedCall/siamese_model/bidirectional/forward_rnn/while_1/loop_counter", "op": "Const", "attr": {"dtype": {"type": "DT_INT32"}, "value": {"tensor": {"dtype": "DT_INT32", "tensorShape": {}}}}}, {"name": "StatefulPartitionedCall/siamese_model/bidirectional/forward_rnn/while_1/maximum_iterations", "op": "Const", "attr": {"dtype": {"type": "DT_INT32"}, "value": {"tensor": {"dtype": "DT_INT32", "tensorShape": {}}}}}, {"name": "StatefulPartitionedCall/siamese_model/bidirectional/forward_rnn/time_1", "op": "Const", "attr": {"value": {"tensor": {"dtype": "DT_INT32", "tensorShape": {}}}, "dtype": {"type": "DT_INT32"}}}, {"name": "StatefulPartitionedCall/siamese_model/bidirectional/forward_rnn/TensorArrayV2_5/element_shape", "op": "Const", "attr": {"value": {"tensor": {"dtype": "DT_INT32", "tensorShape": {"dim": [{"size": "2"}]}}}, "dtype": {"type": "DT_INT32"}}}, {"name": "StatefulPartitionedCall/siamese_model/bidirectional/forward_rnn/strided_slice_6/stack", "op": "Const", "attr": {"dtype": {"type": "DT_INT32"}, "value": {"tensor": {"dtype": "DT_INT32", "tensorShape": {"dim": [{"size": "1"}]}}}}}, {"name": "StatefulPartitionedCall/siamese_model/bidirectional/forward_rnn/strided_slice_6/stack_1", "op": "Const", "attr": {"value": {"tensor": {"dtype": "DT_INT32", "tensorShape": {"dim": [{"size": "1"}]}}}, "dtype": {"type": "DT_INT32"}}}, {"name": "StatefulPartitionedCall/siamese_model/bidirectional/forward_rnn/strided_slice_6/stack_2", "op": "Const", "attr": {"dtype": {"type": "DT_INT32"}, "value": {"tensor": {"dtype": "DT_INT32", "tensorShape": {"dim": [{"size": "1"}]}}}}}, {"name": "StatefulPartitionedCall/siamese_model/bidirectional/forward_rnn/stacked_rnn_cells/simple_rnn_cell/MatMul_2/ReadVariableOp", "op": "Const", "attr": {"value": {"tensor": {"dtype": "DT_FLOAT", "tensorShape": {"dim": [{"size": "39"}, {"size": "50"}]}}}, "dtype": {"type": "DT_FLOAT"}}}, {"name": "StatefulPartitionedCall/siamese_model/bidirectional/forward_rnn/stacked_rnn_cells/simple_rnn_cell/BiasAdd_1/ReadVariableOp", "op": "Const", "attr": {"value": {"tensor": {"dtype": "DT_FLOAT", "tensorShape": {"dim": [{"size": "50"}]}}}, "dtype": {"type": "DT_FLOAT"}}}, {"name": "StatefulPartitionedCall/siamese_model/bidirectional/forward_rnn/stacked_rnn_cells/simple_rnn_cell/MatMul_3/ReadVariableOp", "op": "Const", "attr": {"dtype": {"type": "DT_FLOAT"}, "value": {"tensor": {"dtype": "DT_FLOAT", "tensorShape": {"dim": [{"size": "50"}, {"size": "50"}]}}}}}, {"name": "StatefulPartitionedCall/siamese_model/bidirectional/forward_rnn/strided_slice_4/stack", "op": "Const", "attr": {"dtype": {"type": "DT_INT32"}, "value": {"tensor": {"dtype": "DT_INT32", "tensorShape": {"dim": [{"size": "1"}]}}}}}, {"name": "StatefulPartitionedCall/siamese_model/bidirectional/forward_rnn/strided_slice_4/stack_1", "op": "Const", "attr": {"dtype": {"type": "DT_INT32"}, "value": {"tensor": {"dtype": "DT_INT32", "tensorShape": {"dim": [{"size": "1"}]}}}}}, {"name": "StatefulPartitionedCall/siamese_model/bidirectional/forward_rnn/strided_slice_4/stack_2", "op": "Const", "attr": {"dtype": {"type": "DT_INT32"}, "value": {"tensor": {"dtype": "DT_INT32", "tensorShape": {"dim": [{"size": "1"}]}}}}}, {"name": "StatefulPartitionedCall/siamese_model/bidirectional/forward_rnn/zeros_1/packed/1", "op": "Const", "attr": {"value": {"tensor": {"dtype": "DT_INT32", "tensorShape": {}}}, "dtype": {"type": "DT_INT32"}}}, {"name": "StatefulPartitionedCall/siamese_model/bidirectional/forward_rnn/zeros_1/Const", "op": "Const", "attr": {"dtype": {"type": "DT_FLOAT"}, "value": {"tensor": {"dtype": "DT_FLOAT", "tensorShape": {}}}}}, {"name": "StatefulPartitionedCall/siamese_model/bidirectional/forward_rnn/strided_slice_5/stack", "op": "Const", "attr": {"value": {"tensor": {"dtype": "DT_INT32", "tensorShape": {"dim": [{"size": "1"}]}}}, "dtype": {"type": "DT_INT32"}}}, {"name": "StatefulPartitionedCall/siamese_model/bidirectional/forward_rnn/strided_slice_5/stack_1", "op": "Const", "attr": {"dtype": {"type": "DT_INT32"}, "value": {"tensor": {"dtype": "DT_INT32", "tensorShape": {"dim": [{"size": "1"}]}}}}}, {"name": "StatefulPartitionedCall/siamese_model/bidirectional/forward_rnn/strided_slice_5/stack_2", "op": "Const", "attr": {"dtype": {"type": "DT_INT32"}, "value": {"tensor": {"dtype": "DT_INT32", "tensorShape": {"dim": [{"size": "1"}]}}}}}, {"name": "StatefulPartitionedCall/siamese_model/bidirectional/forward_rnn/transpose_3/perm", "op": "Const", "attr": {"value": {"tensor": {"dtype": "DT_INT32", "tensorShape": {"dim": [{"size": "3"}]}}}, "dtype": {"type": "DT_INT32"}}}, {"name": "StatefulPartitionedCall/siamese_model/bidirectional/forward_rnn/TensorArrayUnstack_2/TensorListFromTensor/element_shape", "op": "Const", "attr": {"value": {"tensor": {"dtype": "DT_INT32", "tensorShape": {"dim": [{"size": "2"}]}}}, "dtype": {"type": "DT_INT32"}}}, {"name": "StatefulPartitionedCall/siamese_model/bidirectional/forward_rnn/ExpandDims_1/dim", "op": "Const", "attr": {"value": {"tensor": {"dtype": "DT_INT32", "tensorShape": {}}}, "dtype": {"type": "DT_INT32"}}}, {"name": "StatefulPartitionedCall/siamese_model/bidirectional/forward_rnn/transpose_4/perm", "op": "Const", "attr": {"dtype": {"type": "DT_INT32"}, "value": {"tensor": {"dtype": "DT_INT32", "tensorShape": {"dim": [{"size": "3"}]}}}}}, {"name": "StatefulPartitionedCall/siamese_model/bidirectional/forward_rnn/TensorArrayUnstack_3/TensorListFromTensor/element_shape", "op": "Const", "attr": {"dtype": {"type": "DT_INT32"}, "value": {"tensor": {"dtype": "DT_INT32", "tensorShape": {"dim": [{"size": "2"}]}}}}}, {"name": "unknown", "op": "Const", "attr": {"dtype": {"type": "DT_FLOAT"}, "value": {"tensor": {"dtype": "DT_FLOAT", "tensorShape": {"dim": [{"size": "39"}, {"size": "50"}]}}}}}, {"name": "unknown_0", "op": "Const", "attr": {"dtype": {"type": "DT_FLOAT"}, "value": {"tensor": {"dtype": "DT_FLOAT", "tensorShape": {"dim": [{"size": "50"}]}}}}}, {"name": "unknown_1", "op": "Const", "attr": {"value": {"tensor": {"dtype": "DT_FLOAT", "tensorShape": {"dim": [{"size": "50"}, {"size": "50"}]}}}, "dtype": {"type": "DT_FLOAT"}}}, {"name": "StatefulPartitionedCall/siamese_model/bidirectional/forward_rnn/TensorArrayV2Stack_1/TensorListStack/element_shape", "op": "Const", "attr": {"dtype": {"type": "DT_INT32"}, "value": {"tensor": {"dtype": "DT_INT32", "tensorShape": {"dim": [{"size": "2"}]}}}}}, {"name": "StatefulPartitionedCall/siamese_model/bidirectional/forward_rnn/strided_slice_7/stack", "op": "Const", "attr": {"dtype": {"type": "DT_INT32"}, "value": {"tensor": {"dtype": "DT_INT32", "tensorShape": {"dim": [{"size": "1"}]}}}}}, {"name": "StatefulPartitionedCall/siamese_model/bidirectional/forward_rnn/strided_slice_7/stack_1", "op": "Const", "attr": {"value": {"tensor": {"dtype": "DT_INT32", "tensorShape": {"dim": [{"size": "1"}]}}}, "dtype": {"type": "DT_INT32"}}}, {"name": "StatefulPartitionedCall/siamese_model/bidirectional/forward_rnn/strided_slice_7/stack_2", "op": "Const", "attr": {"dtype": {"type": "DT_INT32"}, "value": {"tensor": {"dtype": "DT_INT32", "tensorShape": {"dim": [{"size": "1"}]}}}}}, {"name": "StatefulPartitionedCall/siamese_model/bidirectional/backward_rnn/while_1/loop_counter", "op": "Const", "attr": {"value": {"tensor": {"dtype": "DT_INT32", "tensorShape": {}}}, "dtype": {"type": "DT_INT32"}}}, {"name": "StatefulPartitionedCall/siamese_model/bidirectional/backward_rnn/while_1/maximum_iterations", "op": "Const", "attr": {"dtype": {"type": "DT_INT32"}, "value": {"tensor": {"dtype": "DT_INT32", "tensorShape": {}}}}}, {"name": "StatefulPartitionedCall/siamese_model/bidirectional/backward_rnn/time_1", "op": "Const", "attr": {"dtype": {"type": "DT_INT32"}, "value": {"tensor": {"dtype": "DT_INT32", "tensorShape": {}}}}}, {"name": "StatefulPartitionedCall/siamese_model/bidirectional/backward_rnn/TensorArrayV2_5/element_shape", "op": "Const", "attr": {"dtype": {"type": "DT_INT32"}, "value": {"tensor": {"dtype": "DT_INT32", "tensorShape": {"dim": [{"size": "2"}]}}}}}, {"name": "StatefulPartitionedCall/siamese_model/bidirectional/backward_rnn/strided_slice_6/stack", "op": "Const", "attr": {"dtype": {"type": "DT_INT32"}, "value": {"tensor": {"dtype": "DT_INT32", "tensorShape": {"dim": [{"size": "1"}]}}}}}, {"name": "StatefulPartitionedCall/siamese_model/bidirectional/backward_rnn/strided_slice_6/stack_1", "op": "Const", "attr": {"dtype": {"type": "DT_INT32"}, "value": {"tensor": {"dtype": "DT_INT32", "tensorShape": {"dim": [{"size": "1"}]}}}}}, {"name": "StatefulPartitionedCall/siamese_model/bidirectional/backward_rnn/strided_slice_6/stack_2", "op": "Const", "attr": {"value": {"tensor": {"dtype": "DT_INT32", "tensorShape": {"dim": [{"size": "1"}]}}}, "dtype": {"type": "DT_INT32"}}}, {"name": "StatefulPartitionedCall/siamese_model/bidirectional/backward_rnn/stacked_rnn_cells/simple_rnn_cell/MatMul_2/ReadVariableOp", "op": "Const", "attr": {"value": {"tensor": {"dtype": "DT_FLOAT", "tensorShape": {"dim": [{"size": "39"}, {"size": "50"}]}}}, "dtype": {"type": "DT_FLOAT"}}}, {"name": "StatefulPartitionedCall/siamese_model/bidirectional/backward_rnn/stacked_rnn_cells/simple_rnn_cell/BiasAdd_1/ReadVariableOp", "op": "Const", "attr": {"value": {"tensor": {"dtype": "DT_FLOAT", "tensorShape": {"dim": [{"size": "50"}]}}}, "dtype": {"type": "DT_FLOAT"}}}, {"name": "StatefulPartitionedCall/siamese_model/bidirectional/backward_rnn/stacked_rnn_cells/simple_rnn_cell/MatMul_3/ReadVariableOp", "op": "Const", "attr": {"value": {"tensor": {"dtype": "DT_FLOAT", "tensorShape": {"dim": [{"size": "50"}, {"size": "50"}]}}}, "dtype": {"type": "DT_FLOAT"}}}, {"name": "StatefulPartitionedCall/siamese_model/bidirectional/backward_rnn/strided_slice_4/stack", "op": "Const", "attr": {"dtype": {"type": "DT_INT32"}, "value": {"tensor": {"dtype": "DT_INT32", "tensorShape": {"dim": [{"size": "1"}]}}}}}, {"name": "StatefulPartitionedCall/siamese_model/bidirectional/backward_rnn/strided_slice_4/stack_1", "op": "Const", "attr": {"dtype": {"type": "DT_INT32"}, "value": {"tensor": {"dtype": "DT_INT32", "tensorShape": {"dim": [{"size": "1"}]}}}}}, {"name": "StatefulPartitionedCall/siamese_model/bidirectional/backward_rnn/strided_slice_4/stack_2", "op": "Const", "attr": {"dtype": {"type": "DT_INT32"}, "value": {"tensor": {"dtype": "DT_INT32", "tensorShape": {"dim": [{"size": "1"}]}}}}}, {"name": "StatefulPartitionedCall/siamese_model/bidirectional/backward_rnn/zeros_1/packed/1", "op": "Const", "attr": {"value": {"tensor": {"dtype": "DT_INT32", "tensorShape": {}}}, "dtype": {"type": "DT_INT32"}}}, {"name": "StatefulPartitionedCall/siamese_model/bidirectional/backward_rnn/zeros_1/Const", "op": "Const", "attr": {"dtype": {"type": "DT_FLOAT"}, "value": {"tensor": {"dtype": "DT_FLOAT", "tensorShape": {}}}}}, {"name": "StatefulPartitionedCall/siamese_model/bidirectional/backward_rnn/strided_slice_5/stack", "op": "Const", "attr": {"value": {"tensor": {"dtype": "DT_INT32", "tensorShape": {"dim": [{"size": "1"}]}}}, "dtype": {"type": "DT_INT32"}}}, {"name": "StatefulPartitionedCall/siamese_model/bidirectional/backward_rnn/strided_slice_5/stack_1", "op": "Const", "attr": {"value": {"tensor": {"dtype": "DT_INT32", "tensorShape": {"dim": [{"size": "1"}]}}}, "dtype": {"type": "DT_INT32"}}}, {"name": "StatefulPartitionedCall/siamese_model/bidirectional/backward_rnn/strided_slice_5/stack_2", "op": "Const", "attr": {"value": {"tensor": {"dtype": "DT_INT32", "tensorShape": {"dim": [{"size": "1"}]}}}, "dtype": {"type": "DT_INT32"}}}, {"name": "StatefulPartitionedCall/siamese_model/bidirectional/backward_rnn/transpose_3/perm", "op": "Const", "attr": {"dtype": {"type": "DT_INT32"}, "value": {"tensor": {"dtype": "DT_INT32", "tensorShape": {"dim": [{"size": "3"}]}}}}}, {"name": "StatefulPartitionedCall/siamese_model/bidirectional/backward_rnn/ReverseV2_2/axis", "op": "Const", "attr": {"value": {"tensor": {"dtype": "DT_INT32", "tensorShape": {"dim": [{"size": "1"}]}}}, "dtype": {"type": "DT_INT32"}}}, {"name": "StatefulPartitionedCall/siamese_model/bidirectional/backward_rnn/TensorArrayUnstack_2/TensorListFromTensor/element_shape", "op": "Const", "attr": {"dtype": {"type": "DT_INT32"}, "value": {"tensor": {"dtype": "DT_INT32", "tensorShape": {"dim": [{"size": "2"}]}}}}}, {"name": "StatefulPartitionedCall/siamese_model/masking/NotEqual_1/y", "op": "Const", "attr": {"value": {"tensor": {"dtype": "DT_FLOAT", "tensorShape": {}}}, "dtype": {"type": "DT_FLOAT"}}}, {"name": "StatefulPartitionedCall/siamese_model/masking/Any_1/reduction_indices", "op": "Const", "attr": {"value": {"tensor": {"dtype": "DT_INT32", "tensorShape": {}}}, "dtype": {"type": "DT_INT32"}}}, {"name": "StatefulPartitionedCall/siamese_model/bidirectional/backward_rnn/ExpandDims_1/dim", "op": "Const", "attr": {"dtype": {"type": "DT_INT32"}, "value": {"tensor": {"dtype": "DT_INT32", "tensorShape": {}}}}}, {"name": "StatefulPartitionedCall/siamese_model/bidirectional/backward_rnn/transpose_4/perm", "op": "Const", "attr": {"value": {"tensor": {"dtype": "DT_INT32", "tensorShape": {"dim": [{"size": "3"}]}}}, "dtype": {"type": "DT_INT32"}}}, {"name": "StatefulPartitionedCall/siamese_model/bidirectional/backward_rnn/ReverseV2_3/axis", "op": "Const", "attr": {"dtype": {"type": "DT_INT32"}, "value": {"tensor": {"dtype": "DT_INT32", "tensorShape": {"dim": [{"size": "1"}]}}}}}, {"name": "StatefulPartitionedCall/siamese_model/bidirectional/backward_rnn/TensorArrayUnstack_3/TensorListFromTensor/element_shape", "op": "Const", "attr": {"dtype": {"type": "DT_INT32"}, "value": {"tensor": {"dtype": "DT_INT32", "tensorShape": {"dim": [{"size": "2"}]}}}}}, {"name": "unknown_2", "op": "Const", "attr": {"dtype": {"type": "DT_FLOAT"}, "value": {"tensor": {"dtype": "DT_FLOAT", "tensorShape": {"dim": [{"size": "39"}, {"size": "50"}]}}}}}, {"name": "unknown_3", "op": "Const", "attr": {"dtype": {"type": "DT_FLOAT"}, "value": {"tensor": {"dtype": "DT_FLOAT", "tensorShape": {"dim": [{"size": "50"}]}}}}}, {"name": "unknown_4", "op": "Const", "attr": {"value": {"tensor": {"dtype": "DT_FLOAT", "tensorShape": {"dim": [{"size": "50"}, {"size": "50"}]}}}, "dtype": {"type": "DT_FLOAT"}}}, {"name": "StatefulPartitionedCall/siamese_model/bidirectional/backward_rnn/TensorArrayV2Stack_1/TensorListStack/element_shape", "op": "Const", "attr": {"value": {"tensor": {"dtype": "DT_INT32", "tensorShape": {"dim": [{"size": "2"}]}}}, "dtype": {"type": "DT_INT32"}}}, {"name": "StatefulPartitionedCall/siamese_model/bidirectional/backward_rnn/strided_slice_7/stack", "op": "Const", "attr": {"dtype": {"type": "DT_INT32"}, "value": {"tensor": {"dtype": "DT_INT32", "tensorShape": {"dim": [{"size": "1"}]}}}}}, {"name": "StatefulPartitionedCall/siamese_model/bidirectional/backward_rnn/strided_slice_7/stack_1", "op": "Const", "attr": {"dtype": {"type": "DT_INT32"}, "value": {"tensor": {"dtype": "DT_INT32", "tensorShape": {"dim": [{"size": "1"}]}}}}}, {"name": "StatefulPartitionedCall/siamese_model/bidirectional/backward_rnn/strided_slice_7/stack_2", "op": "Const", "attr": {"value": {"tensor": {"dtype": "DT_INT32", "tensorShape": {"dim": [{"size": "1"}]}}}, "dtype": {"type": "DT_INT32"}}}, {"name": "StatefulPartitionedCall/siamese_model/bidirectional/concat_1/axis", "op": "Const", "attr": {"dtype": {"type": "DT_INT32"}, "value": {"tensor": {"dtype": "DT_INT32", "tensorShape": {}}}}}, {"name": "StatefulPartitionedCall/siamese_model/batch_normalization/batchnorm_1/mul", "op": "Const", "attr": {"value": {"tensor": {"dtype": "DT_FLOAT", "tensorShape": {"dim": [{"size": "100"}]}}}, "dtype": {"type": "DT_FLOAT"}}}, {"name": "StatefulPartitionedCall/siamese_model/batch_normalization/batchnorm_1/sub", "op": "Const", "attr": {"dtype": {"type": "DT_FLOAT"}, "value": {"tensor": {"dtype": "DT_FLOAT", "tensorShape": {"dim": [{"size": "100"}]}}}}}, {"name": "StatefulPartitionedCall/siamese_model/dense/MatMul_1/ReadVariableOp", "op": "Const", "attr": {"dtype": {"type": "DT_FLOAT"}, "value": {"tensor": {"dtype": "DT_FLOAT", "tensorShape": {"dim": [{"size": "100"}, {"size": "50"}]}}}}}, {"name": "StatefulPartitionedCall/siamese_model/dense/BiasAdd_1/ReadVariableOp", "op": "Const", "attr": {"dtype": {"type": "DT_FLOAT"}, "value": {"tensor": {"dtype": "DT_FLOAT", "tensorShape": {"dim": [{"size": "50"}]}}}}}, {"name": "StatefulPartitionedCall/siamese_model/lambda/l2_normalize_1/Sum/reduction_indices", "op": "Const", "attr": {"value": {"tensor": {"dtype": "DT_INT32", "tensorShape": {}}}, "dtype": {"type": "DT_INT32"}}}, {"name": "StatefulPartitionedCall/siamese_model/lambda/l2_normalize_1/Maximum/y", "op": "Const", "attr": {"value": {"tensor": {"dtype": "DT_FLOAT", "tensorShape": {}}}, "dtype": {"type": "DT_FLOAT"}}}, {"name": "StatefulPartitionedCall/siamese_model/lambda/Sum/reduction_indices", "op": "Const", "attr": {"dtype": {"type": "DT_INT32"}, "value": {"tensor": {"dtype": "DT_INT32", "tensorShape": {}}}}}, {"name": "input_1", "op": "Placeholder", "attr": {"shape": {"shape": {"dim": [{"size": "-1"}, {"size": "1333"}, {"size": "39"}]}}, "dtype": {"type": "DT_FLOAT"}}}, {"name": "input_2", "op": "Placeholder", "attr": {"dtype": {"type": "DT_FLOAT"}, "shape": {"shape": {"dim": [{"size": "-1"}, {"size": "1333"}, {"size": "39"}]}}}}, {"name": "StatefulPartitionedCall/siamese_model/masking/NotEqual", "op": "NotEqual", "input": ["input_1", "StatefulPartitionedCall/siamese_model/masking/NotEqual/y"], "attr": {"incompatible_shape_error": {"b": true}, "T": {"type": "DT_FLOAT"}}}, {"name": "StatefulPartitionedCall/siamese_model/masking/NotEqual_1", "op": "NotEqual", "input": ["input_2", "StatefulPartitionedCall/siamese_model/masking/NotEqual_1/y"], "attr": {"T": {"type": "DT_FLOAT"}, "incompatible_shape_error": {"b": true}}}, {"name": "StatefulPartitionedCall/siamese_model/masking/Any", "op": "Any", "input": ["StatefulPartitionedCall/siamese_model/masking/NotEqual", "StatefulPartitionedCall/siamese_model/masking/Any/reduction_indices"], "attr": {"keep_dims": {"b": true}, "Tidx": {"type": "DT_INT32"}}}, {"name": "StatefulPartitionedCall/siamese_model/masking/Any_1", "op": "Any", "input": ["StatefulPartitionedCall/siamese_model/masking/NotEqual_1", "StatefulPartitionedCall/siamese_model/masking/Any_1/reduction_indices"], "attr": {"keep_dims": {"b": true}, "Tidx": {"type": "DT_INT32"}}}, {"name": "StatefulPartitionedCall/siamese_model/masking/Cast", "op": "Cast", "input": ["StatefulPartitionedCall/siamese_model/masking/Any"], "attr": {"SrcT": {"type": "DT_BOOL"}, "Truncate": {"b": false}, "DstT": {"type": "DT_FLOAT"}}}, {"name": "StatefulPartitionedCall/siamese_model/masking/Squeeze", "op": "Squeeze", "input": ["StatefulPartitionedCall/siamese_model/masking/Any"], "attr": {"squeeze_dims": {"list": {"i": ["-1"]}}, "T": {"type": "DT_BOOL"}}}, {"name": "StatefulPartitionedCall/siamese_model/masking/Cast_1", "op": "Cast", "input": ["StatefulPartitionedCall/siamese_model/masking/Any_1"], "attr": {"SrcT": {"type": "DT_BOOL"}, "Truncate": {"b": false}, "DstT": {"type": "DT_FLOAT"}}}, {"name": "StatefulPartitionedCall/siamese_model/masking/Squeeze_1", "op": "Squeeze", "input": ["StatefulPartitionedCall/siamese_model/masking/Any_1"], "attr": {"squeeze_dims": {"list": {"i": ["-1"]}}, "T": {"type": "DT_BOOL"}}}, {"name": "StatefulPartitionedCall/siamese_model/masking/mul", "op": "Mul", "input": ["input_1", "StatefulPartitionedCall/siamese_model/masking/Cast"], "attr": {"T": {"type": "DT_FLOAT"}}}, {"name": "StatefulPartitionedCall/siamese_model/bidirectional/forward_rnn/ExpandDims", "op": "ExpandDims", "input": ["StatefulPartitionedCall/siamese_model/masking/Squeeze", "StatefulPartitionedCall/siamese_model/bidirectional/forward_rnn/ExpandDims/dim"], "attr": {"Tdim": {"type": "DT_INT32"}, "T": {"type": "DT_BOOL"}}}, {"name": "StatefulPartitionedCall/siamese_model/bidirectional/backward_rnn/ExpandDims", "op": "ExpandDims", "input": ["StatefulPartitionedCall/siamese_model/masking/Squeeze", "StatefulPartitionedCall/siamese_model/bidirectional/backward_rnn/ExpandDims/dim"], "attr": {"Tdim": {"type": "DT_INT32"}, "T": {"type": "DT_BOOL"}}}, {"name": "StatefulPartitionedCall/siamese_model/masking/mul_1", "op": "Mul", "input": ["input_2", "StatefulPartitionedCall/siamese_model/masking/Cast_1"], "attr": {"T": {"type": "DT_FLOAT"}}}, {"name": "StatefulPartitionedCall/siamese_model/bidirectional/forward_rnn/ExpandDims_1", "op": "ExpandDims", "input": ["StatefulPartitionedCall/siamese_model/masking/Squeeze_1", "StatefulPartitionedCall/siamese_model/bidirectional/forward_rnn/ExpandDims_1/dim"], "attr": {"Tdim": {"type": "DT_INT32"}, "T": {"type": "DT_BOOL"}}}, {"name": "StatefulPartitionedCall/siamese_model/bidirectional/backward_rnn/ExpandDims_1", "op": "ExpandDims", "input": ["StatefulPartitionedCall/siamese_model/masking/Squeeze_1", "StatefulPartitionedCall/siamese_model/bidirectional/backward_rnn/ExpandDims_1/dim"], "attr": {"Tdim": {"type": "DT_INT32"}, "T": {"type": "DT_BOOL"}}}, {"name": "StatefulPartitionedCall/siamese_model/bidirectional/forward_rnn/Shape", "op": "Shape", "input": ["StatefulPartitionedCall/siamese_model/masking/mul"], "attr": {"T": {"type": "DT_FLOAT"}, "out_type": {"type": "DT_INT32"}}}, {"name": "StatefulPartitionedCall/siamese_model/bidirectional/forward_rnn/transpose", "op": "Transpose", "input": ["StatefulPartitionedCall/siamese_model/masking/mul", "StatefulPartitionedCall/siamese_model/bidirectional/forward_rnn/transpose/perm"], "attr": {"Tperm": {"type": "DT_INT32"}, "T": {"type": "DT_FLOAT"}}}, {"name": "StatefulPartitionedCall/siamese_model/bidirectional/backward_rnn/Shape", "op": "Shape", "input": ["StatefulPartitionedCall/siamese_model/masking/mul"], "attr": {"out_type": {"type": "DT_INT32"}, "T": {"type": "DT_FLOAT"}}}, {"name": "StatefulPartitionedCall/siamese_model/bidirectional/backward_rnn/transpose", "op": "Transpose", "input": ["StatefulPartitionedCall/siamese_model/masking/mul", "StatefulPartitionedCall/siamese_model/bidirectional/backward_rnn/transpose/perm"], "attr": {"Tperm": {"type": "DT_INT32"}, "T": {"type": "DT_FLOAT"}}}, {"name": "StatefulPartitionedCall/siamese_model/bidirectional/forward_rnn/transpose_1", "op": "Transpose", "input": ["StatefulPartitionedCall/siamese_model/bidirectional/forward_rnn/ExpandDims", "StatefulPartitionedCall/siamese_model/bidirectional/forward_rnn/transpose_1/perm"], "attr": {"Tperm": {"type": "DT_INT32"}, "T": {"type": "DT_BOOL"}}}, {"name": "StatefulPartitionedCall/siamese_model/bidirectional/backward_rnn/transpose_1", "op": "Transpose", "input": ["StatefulPartitionedCall/siamese_model/bidirectional/backward_rnn/ExpandDims", "StatefulPartitionedCall/siamese_model/bidirectional/backward_rnn/transpose_1/perm"], "attr": {"Tperm": {"type": "DT_INT32"}, "T": {"type": "DT_BOOL"}}}, {"name": "StatefulPartitionedCall/siamese_model/bidirectional/forward_rnn/Shape_2", "op": "Shape", "input": ["StatefulPartitionedCall/siamese_model/masking/mul_1"], "attr": {"out_type": {"type": "DT_INT32"}, "T": {"type": "DT_FLOAT"}}}, {"name": "StatefulPartitionedCall/siamese_model/bidirectional/forward_rnn/transpose_3", "op": "Transpose", "input": ["StatefulPartitionedCall/siamese_model/masking/mul_1", "StatefulPartitionedCall/siamese_model/bidirectional/forward_rnn/transpose_3/perm"], "attr": {"Tperm": {"type": "DT_INT32"}, "T": {"type": "DT_FLOAT"}}}, {"name": "StatefulPartitionedCall/siamese_model/bidirectional/backward_rnn/Shape_2", "op": "Shape", "input": ["StatefulPartitionedCall/siamese_model/masking/mul_1"], "attr": {"T": {"type": "DT_FLOAT"}, "out_type": {"type": "DT_INT32"}}}, {"name": "StatefulPartitionedCall/siamese_model/bidirectional/backward_rnn/transpose_3", "op": "Transpose", "input": ["StatefulPartitionedCall/siamese_model/masking/mul_1", "StatefulPartitionedCall/siamese_model/bidirectional/backward_rnn/transpose_3/perm"], "attr": {"Tperm": {"type": "DT_INT32"}, "T": {"type": "DT_FLOAT"}}}, {"name": "StatefulPartitionedCall/siamese_model/bidirectional/forward_rnn/transpose_4", "op": "Transpose", "input": ["StatefulPartitionedCall/siamese_model/bidirectional/forward_rnn/ExpandDims_1", "StatefulPartitionedCall/siamese_model/bidirectional/forward_rnn/transpose_4/perm"], "attr": {"T": {"type": "DT_BOOL"}, "Tperm": {"type": "DT_INT32"}}}, {"name": "StatefulPartitionedCall/siamese_model/bidirectional/backward_rnn/transpose_4", "op": "Transpose", "input": ["StatefulPartitionedCall/siamese_model/bidirectional/backward_rnn/ExpandDims_1", "StatefulPartitionedCall/siamese_model/bidirectional/backward_rnn/transpose_4/perm"], "attr": {"T": {"type": "DT_BOOL"}, "Tperm": {"type": "DT_INT32"}}}, {"name": "StatefulPartitionedCall/siamese_model/bidirectional/forward_rnn/strided_slice", "op": "StridedSlice", "input": ["StatefulPartitionedCall/siamese_model/bidirectional/forward_rnn/Shape", "StatefulPartitionedCall/siamese_model/bidirectional/forward_rnn/strided_slice/stack", "StatefulPartitionedCall/siamese_model/bidirectional/forward_rnn/strided_slice/stack_1", "StatefulPartitionedCall/siamese_model/bidirectional/forward_rnn/strided_slice/stack_2"], "attr": {"end_mask": {"i": "0"}, "T": {"type": "DT_INT32"}, "new_axis_mask": {"i": "0"}, "shrink_axis_mask": {"i": "1"}, "ellipsis_mask": {"i": "0"}, "Index": {"type": "DT_INT32"}, "begin_mask": {"i": "0"}}}, {"name": "StatefulPartitionedCall/siamese_model/bidirectional/forward_rnn/strided_slice_2", "op": "StridedSlice", "input": ["StatefulPartitionedCall/siamese_model/bidirectional/forward_rnn/transpose", "StatefulPartitionedCall/siamese_model/bidirectional/forward_rnn/strided_slice_2/stack", "StatefulPartitionedCall/siamese_model/bidirectional/forward_rnn/strided_slice_2/stack_1", "StatefulPartitionedCall/siamese_model/bidirectional/forward_rnn/strided_slice_2/stack_2"], "attr": {"end_mask": {"i": "0"}, "begin_mask": {"i": "0"}, "T": {"type": "DT_FLOAT"}, "new_axis_mask": {"i": "0"}, "Index": {"type": "DT_INT32"}, "ellipsis_mask": {"i": "0"}, "shrink_axis_mask": {"i": "1"}}}, {"name": "StatefulPartitionedCall/siamese_model/bidirectional/forward_rnn/Shape_1", "op": "Shape", "input": ["StatefulPartitionedCall/siamese_model/bidirectional/forward_rnn/transpose"], "attr": {"T": {"type": "DT_FLOAT"}, "out_type": {"type": "DT_INT32"}}}, {"name": "StatefulPartitionedCall/siamese_model/bidirectional/forward_rnn/TensorArrayUnstack/TensorListFromTensor", "op": "TensorListFromTensor", "input": ["StatefulPartitionedCall/siamese_model/bidirectional/forward_rnn/transpose", "StatefulPartitionedCall/siamese_model/bidirectional/forward_rnn/TensorArrayUnstack/TensorListFromTensor/element_shape"], "attr": {"element_dtype": {"type": "DT_FLOAT"}, "shape_type": {"type": "DT_INT32"}}, "experimentalType": {"typeId": "TFT_PRODUCT", "args": [{"typeId": "TFT_ARRAY", "args": [{"typeId": "TFT_TENSOR", "args": [{"typeId": "TFT_FLOAT"}]}]}]}}, {"name": "StatefulPartitionedCall/siamese_model/bidirectional/backward_rnn/strided_slice", "op": "StridedSlice", "input": ["StatefulPartitionedCall/siamese_model/bidirectional/backward_rnn/Shape", "StatefulPartitionedCall/siamese_model/bidirectional/backward_rnn/strided_slice/stack", "StatefulPartitionedCall/siamese_model/bidirectional/backward_rnn/strided_slice/stack_1", "StatefulPartitionedCall/siamese_model/bidirectional/backward_rnn/strided_slice/stack_2"], "attr": {"begin_mask": {"i": "0"}, "T": {"type": "DT_INT32"}, "ellipsis_mask": {"i": "0"}, "Index": {"type": "DT_INT32"}, "new_axis_mask": {"i": "0"}, "end_mask": {"i": "0"}, "shrink_axis_mask": {"i": "1"}}}, {"name": "StatefulPartitionedCall/siamese_model/bidirectional/backward_rnn/strided_slice_2", "op": "StridedSlice", "input": ["StatefulPartitionedCall/siamese_model/bidirectional/backward_rnn/transpose", "StatefulPartitionedCall/siamese_model/bidirectional/backward_rnn/strided_slice_2/stack", "StatefulPartitionedCall/siamese_model/bidirectional/backward_rnn/strided_slice_2/stack_1", "StatefulPartitionedCall/siamese_model/bidirectional/backward_rnn/strided_slice_2/stack_2"], "attr": {"end_mask": {"i": "0"}, "begin_mask": {"i": "0"}, "T": {"type": "DT_FLOAT"}, "ellipsis_mask": {"i": "0"}, "new_axis_mask": {"i": "0"}, "Index": {"type": "DT_INT32"}, "shrink_axis_mask": {"i": "1"}}}, {"name": "StatefulPartitionedCall/siamese_model/bidirectional/backward_rnn/Shape_1", "op": "Shape", "input": ["StatefulPartitionedCall/siamese_model/bidirectional/backward_rnn/transpose"], "attr": {"out_type": {"type": "DT_INT32"}, "T": {"type": "DT_FLOAT"}}}, {"name": "StatefulPartitionedCall/siamese_model/bidirectional/backward_rnn/ReverseV2", "op": "ReverseV2", "input": ["StatefulPartitionedCall/siamese_model/bidirectional/backward_rnn/transpose", "StatefulPartitionedCall/siamese_model/bidirectional/backward_rnn/ReverseV2/axis"], "attr": {"Tidx": {"type": "DT_INT32"}, "T": {"type": "DT_FLOAT"}}}, {"name": "StatefulPartitionedCall/siamese_model/bidirectional/forward_rnn/TensorArrayUnstack_1/TensorListFromTensor", "op": "TensorListFromTensor", "input": ["StatefulPartitionedCall/siamese_model/bidirectional/forward_rnn/transpose_1", "StatefulPartitionedCall/siamese_model/bidirectional/forward_rnn/TensorArrayUnstack_1/TensorListFromTensor/element_shape"], "attr": {"shape_type": {"type": "DT_INT32"}, "element_dtype": {"type": "DT_BOOL"}}, "experimentalType": {"typeId": "TFT_PRODUCT", "args": [{"typeId": "TFT_ARRAY", "args": [{"typeId": "TFT_TENSOR", "args": [{"typeId": "TFT_BOOL"}]}]}]}}, {"name": "StatefulPartitionedCall/siamese_model/bidirectional/backward_rnn/ReverseV2_1", "op": "ReverseV2", "input": ["StatefulPartitionedCall/siamese_model/bidirectional/backward_rnn/transpose_1", "StatefulPartitionedCall/siamese_model/bidirectional/backward_rnn/ReverseV2_1/axis"], "attr": {"Tidx": {"type": "DT_INT32"}, "T": {"type": "DT_BOOL"}}}, {"name": "StatefulPartitionedCall/siamese_model/bidirectional/forward_rnn/strided_slice_4", "op": "StridedSlice", "input": ["StatefulPartitionedCall/siamese_model/bidirectional/forward_rnn/Shape_2", "StatefulPartitionedCall/siamese_model/bidirectional/forward_rnn/strided_slice_4/stack", "StatefulPartitionedCall/siamese_model/bidirectional/forward_rnn/strided_slice_4/stack_1", "StatefulPartitionedCall/siamese_model/bidirectional/forward_rnn/strided_slice_4/stack_2"], "attr": {"begin_mask": {"i": "0"}, "Index": {"type": "DT_INT32"}, "shrink_axis_mask": {"i": "1"}, "new_axis_mask": {"i": "0"}, "T": {"type": "DT_INT32"}, "end_mask": {"i": "0"}, "ellipsis_mask": {"i": "0"}}}, {"name": "StatefulPartitionedCall/siamese_model/bidirectional/forward_rnn/strided_slice_6", "op": "StridedSlice", "input": ["StatefulPartitionedCall/siamese_model/bidirectional/forward_rnn/transpose_3", "StatefulPartitionedCall/siamese_model/bidirectional/forward_rnn/strided_slice_6/stack", "StatefulPartitionedCall/siamese_model/bidirectional/forward_rnn/strided_slice_6/stack_1", "StatefulPartitionedCall/siamese_model/bidirectional/forward_rnn/strided_slice_6/stack_2"], "attr": {"end_mask": {"i": "0"}, "T": {"type": "DT_FLOAT"}, "begin_mask": {"i": "0"}, "ellipsis_mask": {"i": "0"}, "shrink_axis_mask": {"i": "1"}, "new_axis_mask": {"i": "0"}, "Index": {"type": "DT_INT32"}}}, {"name": "StatefulPartitionedCall/siamese_model/bidirectional/forward_rnn/Shape_3", "op": "Shape", "input": ["StatefulPartitionedCall/siamese_model/bidirectional/forward_rnn/transpose_3"], "attr": {"out_type": {"type": "DT_INT32"}, "T": {"type": "DT_FLOAT"}}}, {"name": "StatefulPartitionedCall/siamese_model/bidirectional/forward_rnn/TensorArrayUnstack_2/TensorListFromTensor", "op": "TensorListFromTensor", "input": ["StatefulPartitionedCall/siamese_model/bidirectional/forward_rnn/transpose_3", "StatefulPartitionedCall/siamese_model/bidirectional/forward_rnn/TensorArrayUnstack_2/TensorListFromTensor/element_shape"], "attr": {"shape_type": {"type": "DT_INT32"}, "element_dtype": {"type": "DT_FLOAT"}}, "experimentalType": {"typeId": "TFT_PRODUCT", "args": [{"typeId": "TFT_ARRAY", "args": [{"typeId": "TFT_TENSOR", "args": [{"typeId": "TFT_FLOAT"}]}]}]}}, {"name": "StatefulPartitionedCall/siamese_model/bidirectional/backward_rnn/strided_slice_4", "op": "StridedSlice", "input": ["StatefulPartitionedCall/siamese_model/bidirectional/backward_rnn/Shape_2", "StatefulPartitionedCall/siamese_model/bidirectional/backward_rnn/strided_slice_4/stack", "StatefulPartitionedCall/siamese_model/bidirectional/backward_rnn/strided_slice_4/stack_1", "StatefulPartitionedCall/siamese_model/bidirectional/backward_rnn/strided_slice_4/stack_2"], "attr": {"shrink_axis_mask": {"i": "1"}, "end_mask": {"i": "0"}, "ellipsis_mask": {"i": "0"}, "Index": {"type": "DT_INT32"}, "new_axis_mask": {"i": "0"}, "T": {"type": "DT_INT32"}, "begin_mask": {"i": "0"}}}, {"name": "StatefulPartitionedCall/siamese_model/bidirectional/backward_rnn/strided_slice_6", "op": "StridedSlice", "input": ["StatefulPartitionedCall/siamese_model/bidirectional/backward_rnn/transpose_3", "StatefulPartitionedCall/siamese_model/bidirectional/backward_rnn/strided_slice_6/stack", "StatefulPartitionedCall/siamese_model/bidirectional/backward_rnn/strided_slice_6/stack_1", "StatefulPartitionedCall/siamese_model/bidirectional/backward_rnn/strided_slice_6/stack_2"], "attr": {"begin_mask": {"i": "0"}, "T": {"type": "DT_FLOAT"}, "end_mask": {"i": "0"}, "ellipsis_mask": {"i": "0"}, "Index": {"type": "DT_INT32"}, "shrink_axis_mask": {"i": "1"}, "new_axis_mask": {"i": "0"}}}, {"name": "StatefulPartitionedCall/siamese_model/bidirectional/backward_rnn/Shape_3", "op": "Shape", "input": ["StatefulPartitionedCall/siamese_model/bidirectional/backward_rnn/transpose_3"], "attr": {"T": {"type": "DT_FLOAT"}, "out_type": {"type": "DT_INT32"}}}, {"name": "StatefulPartitionedCall/siamese_model/bidirectional/backward_rnn/ReverseV2_2", "op": "ReverseV2", "input": ["StatefulPartitionedCall/siamese_model/bidirectional/backward_rnn/transpose_3", "StatefulPartitionedCall/siamese_model/bidirectional/backward_rnn/ReverseV2_2/axis"], "attr": {"Tidx": {"type": "DT_INT32"}, "T": {"type": "DT_FLOAT"}}}, {"name": "StatefulPartitionedCall/siamese_model/bidirectional/forward_rnn/TensorArrayUnstack_3/TensorListFromTensor", "op": "TensorListFromTensor", "input": ["StatefulPartitionedCall/siamese_model/bidirectional/forward_rnn/transpose_4", "StatefulPartitionedCall/siamese_model/bidirectional/forward_rnn/TensorArrayUnstack_3/TensorListFromTensor/element_shape"], "attr": {"shape_type": {"type": "DT_INT32"}, "element_dtype": {"type": "DT_BOOL"}}, "experimentalType": {"typeId": "TFT_PRODUCT", "args": [{"typeId": "TFT_ARRAY", "args": [{"typeId": "TFT_TENSOR", "args": [{"typeId": "TFT_BOOL"}]}]}]}}, {"name": "StatefulPartitionedCall/siamese_model/bidirectional/backward_rnn/ReverseV2_3", "op": "ReverseV2", "input": ["StatefulPartitionedCall/siamese_model/bidirectional/backward_rnn/transpose_4", "StatefulPartitionedCall/siamese_model/bidirectional/backward_rnn/ReverseV2_3/axis"], "attr": {"Tidx": {"type": "DT_INT32"}, "T": {"type": "DT_BOOL"}}}, {"name": "StatefulPartitionedCall/siamese_model/bidirectional/forward_rnn/zeros/packed", "op": "Pack", "input": ["StatefulPartitionedCall/siamese_model/bidirectional/forward_rnn/strided_slice", "StatefulPartitionedCall/siamese_model/bidirectional/forward_rnn/zeros/packed/1"], "attr": {"N": {"i": "2"}, "axis": {"i": "0"}, "T": {"type": "DT_INT32"}}}, {"name": "StatefulPartitionedCall/siamese_model/bidirectional/forward_rnn/stacked_rnn_cells/simple_rnn_cell/BiasAdd", "op": "_FusedMatMul", "input": ["StatefulPartitionedCall/siamese_model/bidirectional/forward_rnn/strided_slice_2", "StatefulPartitionedCall/siamese_model/bidirectional/forward_rnn/stacked_rnn_cells/simple_rnn_cell/MatMul/ReadVariableOp", "StatefulPartitionedCall/siamese_model/bidirectional/forward_rnn/stacked_rnn_cells/simple_rnn_cell/BiasAdd/ReadVariableOp"], "device": "/device:CPU:0", "attr": {"transpose_a": {"b": false}, "epsilon": {"f": 0.0}, "fused_ops": {"list": {"s": ["Qmlhc0FkZA=="]}}, "num_args": {"i": "1"}, "transpose_b": {"b": false}, "T": {"type": "DT_FLOAT"}}}, {"name": "StatefulPartitionedCall/siamese_model/bidirectional/forward_rnn/strided_slice_1", "op": "StridedSlice", "input": ["StatefulPartitionedCall/siamese_model/bidirectional/forward_rnn/Shape_1", "StatefulPartitionedCall/siamese_model/bidirectional/forward_rnn/strided_slice_1/stack", "StatefulPartitionedCall/siamese_model/bidirectional/forward_rnn/strided_slice_1/stack_1", "StatefulPartitionedCall/siamese_model/bidirectional/forward_rnn/strided_slice_1/stack_2"], "attr": {"shrink_axis_mask": {"i": "1"}, "Index": {"type": "DT_INT32"}, "ellipsis_mask": {"i": "0"}, "T": {"type": "DT_INT32"}, "begin_mask": {"i": "0"}, "end_mask": {"i": "0"}, "new_axis_mask": {"i": "0"}}}, {"name": "StatefulPartitionedCall/siamese_model/bidirectional/backward_rnn/zeros/packed", "op": "Pack", "input": ["StatefulPartitionedCall/siamese_model/bidirectional/backward_rnn/strided_slice", "StatefulPartitionedCall/siamese_model/bidirectional/backward_rnn/zeros/packed/1"], "attr": {"N": {"i": "2"}, "T": {"type": "DT_INT32"}, "axis": {"i": "0"}}}, {"name": "StatefulPartitionedCall/siamese_model/bidirectional/backward_rnn/stacked_rnn_cells/simple_rnn_cell/BiasAdd", "op": "_FusedMatMul", "input": ["StatefulPartitionedCall/siamese_model/bidirectional/backward_rnn/strided_slice_2", "StatefulPartitionedCall/siamese_model/bidirectional/backward_rnn/stacked_rnn_cells/simple_rnn_cell/MatMul/ReadVariableOp", "StatefulPartitionedCall/siamese_model/bidirectional/backward_rnn/stacked_rnn_cells/simple_rnn_cell/BiasAdd/ReadVariableOp"], "device": "/device:CPU:0", "attr": {"num_args": {"i": "1"}, "epsilon": {"f": 0.0}, "transpose_a": {"b": false}, "T": {"type": "DT_FLOAT"}, "fused_ops": {"list": {"s": ["Qmlhc0FkZA=="]}}, "transpose_b": {"b": false}}}, {"name": "StatefulPartitionedCall/siamese_model/bidirectional/backward_rnn/strided_slice_1", "op": "StridedSlice", "input": ["StatefulPartitionedCall/siamese_model/bidirectional/backward_rnn/Shape_1", "StatefulPartitionedCall/siamese_model/bidirectional/backward_rnn/strided_slice_1/stack", "StatefulPartitionedCall/siamese_model/bidirectional/backward_rnn/strided_slice_1/stack_1", "StatefulPartitionedCall/siamese_model/bidirectional/backward_rnn/strided_slice_1/stack_2"], "attr": {"begin_mask": {"i": "0"}, "end_mask": {"i": "0"}, "T": {"type": "DT_INT32"}, "ellipsis_mask": {"i": "0"}, "Index": {"type": "DT_INT32"}, "new_axis_mask": {"i": "0"}, "shrink_axis_mask": {"i": "1"}}}, {"name": "StatefulPartitionedCall/siamese_model/bidirectional/backward_rnn/TensorArrayUnstack/TensorListFromTensor", "op": "TensorListFromTensor", "input": ["StatefulPartitionedCall/siamese_model/bidirectional/backward_rnn/ReverseV2", "StatefulPartitionedCall/siamese_model/bidirectional/backward_rnn/TensorArrayUnstack/TensorListFromTensor/element_shape"], "attr": {"element_dtype": {"type": "DT_FLOAT"}, "shape_type": {"type": "DT_INT32"}}, "experimentalType": {"typeId": "TFT_PRODUCT", "args": [{"typeId": "TFT_ARRAY", "args": [{"typeId": "TFT_TENSOR", "args": [{"typeId": "TFT_FLOAT"}]}]}]}}, {"name": "StatefulPartitionedCall/siamese_model/bidirectional/backward_rnn/TensorArrayUnstack_1/TensorListFromTensor", "op": "TensorListFromTensor", "input": ["StatefulPartitionedCall/siamese_model/bidirectional/backward_rnn/ReverseV2_1", "StatefulPartitionedCall/siamese_model/bidirectional/backward_rnn/TensorArrayUnstack_1/TensorListFromTensor/element_shape"], "attr": {"shape_type": {"type": "DT_INT32"}, "element_dtype": {"type": "DT_BOOL"}}, "experimentalType": {"typeId": "TFT_PRODUCT", "args": [{"typeId": "TFT_ARRAY", "args": [{"typeId": "TFT_TENSOR", "args": [{"typeId": "TFT_BOOL"}]}]}]}}, {"name": "StatefulPartitionedCall/siamese_model/bidirectional/forward_rnn/zeros_1/packed", "op": "Pack", "input": ["StatefulPartitionedCall/siamese_model/bidirectional/forward_rnn/strided_slice_4", "StatefulPartitionedCall/siamese_model/bidirectional/forward_rnn/zeros_1/packed/1"], "attr": {"T": {"type": "DT_INT32"}, "axis": {"i": "0"}, "N": {"i": "2"}}}, {"name": "StatefulPartitionedCall/siamese_model/bidirectional/forward_rnn/stacked_rnn_cells/simple_rnn_cell/BiasAdd_1", "op": "_FusedMatMul", "input": ["StatefulPartitionedCall/siamese_model/bidirectional/forward_rnn/strided_slice_6", "StatefulPartitionedCall/siamese_model/bidirectional/forward_rnn/stacked_rnn_cells/simple_rnn_cell/MatMul_2/ReadVariableOp", "StatefulPartitionedCall/siamese_model/bidirectional/forward_rnn/stacked_rnn_cells/simple_rnn_cell/BiasAdd_1/ReadVariableOp"], "device": "/device:CPU:0", "attr": {"epsilon": {"f": 0.0}, "transpose_b": {"b": false}, "T": {"type": "DT_FLOAT"}, "num_args": {"i": "1"}, "transpose_a": {"b": false}, "fused_ops": {"list": {"s": ["Qmlhc0FkZA=="]}}}}, {"name": "StatefulPartitionedCall/siamese_model/bidirectional/forward_rnn/strided_slice_5", "op": "StridedSlice", "input": ["StatefulPartitionedCall/siamese_model/bidirectional/forward_rnn/Shape_3", "StatefulPartitionedCall/siamese_model/bidirectional/forward_rnn/strided_slice_5/stack", "StatefulPartitionedCall/siamese_model/bidirectional/forward_rnn/strided_slice_5/stack_1", "StatefulPartitionedCall/siamese_model/bidirectional/forward_rnn/strided_slice_5/stack_2"], "attr": {"new_axis_mask": {"i": "0"}, "begin_mask": {"i": "0"}, "shrink_axis_mask": {"i": "1"}, "end_mask": {"i": "0"}, "ellipsis_mask": {"i": "0"}, "T": {"type": "DT_INT32"}, "Index": {"type": "DT_INT32"}}}, {"name": "StatefulPartitionedCall/siamese_model/bidirectional/backward_rnn/zeros_1/packed", "op": "Pack", "input": ["StatefulPartitionedCall/siamese_model/bidirectional/backward_rnn/strided_slice_4", "StatefulPartitionedCall/siamese_model/bidirectional/backward_rnn/zeros_1/packed/1"], "attr": {"axis": {"i": "0"}, "T": {"type": "DT_INT32"}, "N": {"i": "2"}}}, {"name": "StatefulPartitionedCall/siamese_model/bidirectional/backward_rnn/stacked_rnn_cells/simple_rnn_cell/BiasAdd_1", "op": "_FusedMatMul", "input": ["StatefulPartitionedCall/siamese_model/bidirectional/backward_rnn/strided_slice_6", "StatefulPartitionedCall/siamese_model/bidirectional/backward_rnn/stacked_rnn_cells/simple_rnn_cell/MatMul_2/ReadVariableOp", "StatefulPartitionedCall/siamese_model/bidirectional/backward_rnn/stacked_rnn_cells/simple_rnn_cell/BiasAdd_1/ReadVariableOp"], "device": "/device:CPU:0", "attr": {"num_args": {"i": "1"}, "fused_ops": {"list": {"s": ["Qmlhc0FkZA=="]}}, "epsilon": {"f": 0.0}, "transpose_b": {"b": false}, "transpose_a": {"b": false}, "T": {"type": "DT_FLOAT"}}}, {"name": "StatefulPartitionedCall/siamese_model/bidirectional/backward_rnn/strided_slice_5", "op": "StridedSlice", "input": ["StatefulPartitionedCall/siamese_model/bidirectional/backward_rnn/Shape_3", "StatefulPartitionedCall/siamese_model/bidirectional/backward_rnn/strided_slice_5/stack", "StatefulPartitionedCall/siamese_model/bidirectional/backward_rnn/strided_slice_5/stack_1", "StatefulPartitionedCall/siamese_model/bidirectional/backward_rnn/strided_slice_5/stack_2"], "attr": {"begin_mask": {"i": "0"}, "Index": {"type": "DT_INT32"}, "shrink_axis_mask": {"i": "1"}, "end_mask": {"i": "0"}, "T": {"type": "DT_INT32"}, "new_axis_mask": {"i": "0"}, "ellipsis_mask": {"i": "0"}}}, {"name": "StatefulPartitionedCall/siamese_model/bidirectional/backward_rnn/TensorArrayUnstack_2/TensorListFromTensor", "op": "TensorListFromTensor", "input": ["StatefulPartitionedCall/siamese_model/bidirectional/backward_rnn/ReverseV2_2", "StatefulPartitionedCall/siamese_model/bidirectional/backward_rnn/TensorArrayUnstack_2/TensorListFromTensor/element_shape"], "attr": {"element_dtype": {"type": "DT_FLOAT"}, "shape_type": {"type": "DT_INT32"}}, "experimentalType": {"typeId": "TFT_PRODUCT", "args": [{"typeId": "TFT_ARRAY", "args": [{"typeId": "TFT_TENSOR", "args": [{"typeId": "TFT_FLOAT"}]}]}]}}, {"name": "StatefulPartitionedCall/siamese_model/bidirectional/backward_rnn/TensorArrayUnstack_3/TensorListFromTensor", "op": "TensorListFromTensor", "input": ["StatefulPartitionedCall/siamese_model/bidirectional/backward_rnn/ReverseV2_3", "StatefulPartitionedCall/siamese_model/bidirectional/backward_rnn/TensorArrayUnstack_3/TensorListFromTensor/element_shape"], "attr": {"shape_type": {"type": "DT_INT32"}, "element_dtype": {"type": "DT_BOOL"}}, "experimentalType": {"typeId": "TFT_PRODUCT", "args": [{"typeId": "TFT_ARRAY", "args": [{"typeId": "TFT_TENSOR", "args": [{"typeId": "TFT_BOOL"}]}]}]}}, {"name": "StatefulPartitionedCall/siamese_model/bidirectional/forward_rnn/zeros", "op": "Fill", "input": ["StatefulPartitionedCall/siamese_model/bidirectional/forward_rnn/zeros/packed", "StatefulPartitionedCall/siamese_model/bidirectional/forward_rnn/zeros/Const"], "attr": {"index_type": {"type": "DT_INT32"}, "T": {"type": "DT_FLOAT"}}}, {"name": "StatefulPartitionedCall/siamese_model/bidirectional/forward_rnn/TensorArrayV2_1", "op": "TensorListReserve", "input": ["StatefulPartitionedCall/siamese_model/bidirectional/forward_rnn/TensorArrayV2_1/element_shape", "StatefulPartitionedCall/siamese_model/bidirectional/forward_rnn/strided_slice_1"], "attr": {"element_dtype": {"type": "DT_FLOAT"}, "shape_type": {"type": "DT_INT32"}}, "experimentalType": {"typeId": "TFT_PRODUCT", "args": [{"typeId": "TFT_ARRAY", "args": [{"typeId": "TFT_TENSOR", "args": [{"typeId": "TFT_FLOAT"}]}]}]}}, {"name": "StatefulPartitionedCall/siamese_model/bidirectional/backward_rnn/zeros", "op": "Fill", "input": ["StatefulPartitionedCall/siamese_model/bidirectional/backward_rnn/zeros/packed", "StatefulPartitionedCall/siamese_model/bidirectional/backward_rnn/zeros/Const"], "attr": {"T": {"type": "DT_FLOAT"}, "index_type": {"type": "DT_INT32"}}}, {"name": "StatefulPartitionedCall/siamese_model/bidirectional/backward_rnn/TensorArrayV2_1", "op": "TensorListReserve", "input": ["StatefulPartitionedCall/siamese_model/bidirectional/backward_rnn/TensorArrayV2_1/element_shape", "StatefulPartitionedCall/siamese_model/bidirectional/backward_rnn/strided_slice_1"], "attr": {"shape_type": {"type": "DT_INT32"}, "element_dtype": {"type": "DT_FLOAT"}}, "experimentalType": {"typeId": "TFT_PRODUCT", "args": [{"typeId": "TFT_ARRAY", "args": [{"typeId": "TFT_TENSOR", "args": [{"typeId": "TFT_FLOAT"}]}]}]}}, {"name": "StatefulPartitionedCall/siamese_model/bidirectional/forward_rnn/zeros_1", "op": "Fill", "input": ["StatefulPartitionedCall/siamese_model/bidirectional/forward_rnn/zeros_1/packed", "StatefulPartitionedCall/siamese_model/bidirectional/forward_rnn/zeros_1/Const"], "attr": {"index_type": {"type": "DT_INT32"}, "T": {"type": "DT_FLOAT"}}}, {"name": "StatefulPartitionedCall/siamese_model/bidirectional/forward_rnn/TensorArrayV2_5", "op": "TensorListReserve", "input": ["StatefulPartitionedCall/siamese_model/bidirectional/forward_rnn/TensorArrayV2_5/element_shape", "StatefulPartitionedCall/siamese_model/bidirectional/forward_rnn/strided_slice_5"], "attr": {"shape_type": {"type": "DT_INT32"}, "element_dtype": {"type": "DT_FLOAT"}}, "experimentalType": {"typeId": "TFT_PRODUCT", "args": [{"typeId": "TFT_ARRAY", "args": [{"typeId": "TFT_TENSOR", "args": [{"typeId": "TFT_FLOAT"}]}]}]}}, {"name": "StatefulPartitionedCall/siamese_model/bidirectional/backward_rnn/zeros_1", "op": "Fill", "input": ["StatefulPartitionedCall/siamese_model/bidirectional/backward_rnn/zeros_1/packed", "StatefulPartitionedCall/siamese_model/bidirectional/backward_rnn/zeros_1/Const"], "attr": {"T": {"type": "DT_FLOAT"}, "index_type": {"type": "DT_INT32"}}}, {"name": "StatefulPartitionedCall/siamese_model/bidirectional/backward_rnn/TensorArrayV2_5", "op": "TensorListReserve", "input": ["StatefulPartitionedCall/siamese_model/bidirectional/backward_rnn/TensorArrayV2_5/element_shape", "StatefulPartitionedCall/siamese_model/bidirectional/backward_rnn/strided_slice_5"], "attr": {"element_dtype": {"type": "DT_FLOAT"}, "shape_type": {"type": "DT_INT32"}}, "experimentalType": {"typeId": "TFT_PRODUCT", "args": [{"typeId": "TFT_ARRAY", "args": [{"typeId": "TFT_TENSOR", "args": [{"typeId": "TFT_FLOAT"}]}]}]}}, {"name": "StatefulPartitionedCall/siamese_model/bidirectional/forward_rnn/stacked_rnn_cells/simple_rnn_cell/MatMul_1", "op": "MatMul", "input": ["StatefulPartitionedCall/siamese_model/bidirectional/forward_rnn/zeros", "StatefulPartitionedCall/siamese_model/bidirectional/forward_rnn/stacked_rnn_cells/simple_rnn_cell/MatMul_1/ReadVariableOp"], "device": "/device:CPU:0", "attr": {"T": {"type": "DT_FLOAT"}, "transpose_a": {"b": false}, "transpose_b": {"b": false}}}, {"name": "StatefulPartitionedCall/siamese_model/bidirectional/backward_rnn/stacked_rnn_cells/simple_rnn_cell/MatMul_1", "op": "MatMul", "input": ["StatefulPartitionedCall/siamese_model/bidirectional/backward_rnn/zeros", "StatefulPartitionedCall/siamese_model/bidirectional/backward_rnn/stacked_rnn_cells/simple_rnn_cell/MatMul_1/ReadVariableOp"], "device": "/device:CPU:0", "attr": {"transpose_b": {"b": false}, "T": {"type": "DT_FLOAT"}, "transpose_a": {"b": false}}}, {"name": "StatefulPartitionedCall/siamese_model/bidirectional/forward_rnn/stacked_rnn_cells/simple_rnn_cell/MatMul_3", "op": "MatMul", "input": ["StatefulPartitionedCall/siamese_model/bidirectional/forward_rnn/zeros_1", "StatefulPartitionedCall/siamese_model/bidirectional/forward_rnn/stacked_rnn_cells/simple_rnn_cell/MatMul_3/ReadVariableOp"], "device": "/device:CPU:0", "attr": {"T": {"type": "DT_FLOAT"}, "transpose_a": {"b": false}, "transpose_b": {"b": false}}}, {"name": "StatefulPartitionedCall/siamese_model/bidirectional/backward_rnn/stacked_rnn_cells/simple_rnn_cell/MatMul_3", "op": "MatMul", "input": ["StatefulPartitionedCall/siamese_model/bidirectional/backward_rnn/zeros_1", "StatefulPartitionedCall/siamese_model/bidirectional/backward_rnn/stacked_rnn_cells/simple_rnn_cell/MatMul_3/ReadVariableOp"], "device": "/device:CPU:0", "attr": {"T": {"type": "DT_FLOAT"}, "transpose_a": {"b": false}, "transpose_b": {"b": false}}}, {"name": "StatefulPartitionedCall/siamese_model/bidirectional/forward_rnn/stacked_rnn_cells/simple_rnn_cell/add", "op": "AddV2", "input": ["StatefulPartitionedCall/siamese_model/bidirectional/forward_rnn/stacked_rnn_cells/simple_rnn_cell/BiasAdd", "StatefulPartitionedCall/siamese_model/bidirectional/forward_rnn/stacked_rnn_cells/simple_rnn_cell/MatMul_1"], "attr": {"T": {"type": "DT_FLOAT"}}}, {"name": "StatefulPartitionedCall/siamese_model/bidirectional/backward_rnn/stacked_rnn_cells/simple_rnn_cell/add", "op": "AddV2", "input": ["StatefulPartitionedCall/siamese_model/bidirectional/backward_rnn/stacked_rnn_cells/simple_rnn_cell/BiasAdd", "StatefulPartitionedCall/siamese_model/bidirectional/backward_rnn/stacked_rnn_cells/simple_rnn_cell/MatMul_1"], "attr": {"T": {"type": "DT_FLOAT"}}}, {"name": "StatefulPartitionedCall/siamese_model/bidirectional/forward_rnn/stacked_rnn_cells/simple_rnn_cell/add_1", "op": "AddV2", "input": ["StatefulPartitionedCall/siamese_model/bidirectional/forward_rnn/stacked_rnn_cells/simple_rnn_cell/BiasAdd_1", "StatefulPartitionedCall/siamese_model/bidirectional/forward_rnn/stacked_rnn_cells/simple_rnn_cell/MatMul_3"], "attr": {"T": {"type": "DT_FLOAT"}}}, {"name": "StatefulPartitionedCall/siamese_model/bidirectional/backward_rnn/stacked_rnn_cells/simple_rnn_cell/add_1", "op": "AddV2", "input": ["StatefulPartitionedCall/siamese_model/bidirectional/backward_rnn/stacked_rnn_cells/simple_rnn_cell/BiasAdd_1", "StatefulPartitionedCall/siamese_model/bidirectional/backward_rnn/stacked_rnn_cells/simple_rnn_cell/MatMul_3"], "attr": {"T": {"type": "DT_FLOAT"}}}, {"name": "StatefulPartitionedCall/siamese_model/bidirectional/forward_rnn/stacked_rnn_cells/simple_rnn_cell/Tanh", "op": "Tanh", "input": ["StatefulPartitionedCall/siamese_model/bidirectional/forward_rnn/stacked_rnn_cells/simple_rnn_cell/add"], "attr": {"T": {"type": "DT_FLOAT"}}}, {"name": "StatefulPartitionedCall/siamese_model/bidirectional/backward_rnn/stacked_rnn_cells/simple_rnn_cell/Tanh", "op": "Tanh", "input": ["StatefulPartitionedCall/siamese_model/bidirectional/backward_rnn/stacked_rnn_cells/simple_rnn_cell/add"], "attr": {"T": {"type": "DT_FLOAT"}}}, {"name": "StatefulPartitionedCall/siamese_model/bidirectional/forward_rnn/stacked_rnn_cells/simple_rnn_cell/Tanh_1", "op": "Tanh", "input": ["StatefulPartitionedCall/siamese_model/bidirectional/forward_rnn/stacked_rnn_cells/simple_rnn_cell/add_1"], "attr": {"T": {"type": "DT_FLOAT"}}}, {"name": "StatefulPartitionedCall/siamese_model/bidirectional/backward_rnn/stacked_rnn_cells/simple_rnn_cell/Tanh_1", "op": "Tanh", "input": ["StatefulPartitionedCall/siamese_model/bidirectional/backward_rnn/stacked_rnn_cells/simple_rnn_cell/add_1"], "attr": {"T": {"type": "DT_FLOAT"}}}, {"name": "StatefulPartitionedCall/siamese_model/bidirectional/forward_rnn/zeros_like", "op": "ZerosLike", "input": ["StatefulPartitionedCall/siamese_model/bidirectional/forward_rnn/stacked_rnn_cells/simple_rnn_cell/Tanh"], "attr": {"T": {"type": "DT_FLOAT"}}}, {"name": "StatefulPartitionedCall/siamese_model/bidirectional/backward_rnn/zeros_like", "op": "ZerosLike", "input": ["StatefulPartitionedCall/siamese_model/bidirectional/backward_rnn/stacked_rnn_cells/simple_rnn_cell/Tanh"], "attr": {"T": {"type": "DT_FLOAT"}}}, {"name": "StatefulPartitionedCall/siamese_model/bidirectional/forward_rnn/zeros_like_1", "op": "ZerosLike", "input": ["StatefulPartitionedCall/siamese_model/bidirectional/forward_rnn/stacked_rnn_cells/simple_rnn_cell/Tanh_1"], "attr": {"T": {"type": "DT_FLOAT"}}}, {"name": "StatefulPartitionedCall/siamese_model/bidirectional/backward_rnn/zeros_like_1", "op": "ZerosLike", "input": ["StatefulPartitionedCall/siamese_model/bidirectional/backward_rnn/stacked_rnn_cells/simple_rnn_cell/Tanh_1"], "attr": {"T": {"type": "DT_FLOAT"}}}, {"name": "StatefulPartitionedCall/siamese_model/bidirectional/forward_rnn/while", "op": "While", "input": ["StatefulPartitionedCall/siamese_model/bidirectional/forward_rnn/while/loop_counter", "StatefulPartitionedCall/siamese_model/bidirectional/forward_rnn/while/maximum_iterations", "StatefulPartitionedCall/siamese_model/bidirectional/forward_rnn/time", "StatefulPartitionedCall/siamese_model/bidirectional/forward_rnn/TensorArrayV2_1", "StatefulPartitionedCall/siamese_model/bidirectional/forward_rnn/zeros_like", "StatefulPartitionedCall/siamese_model/bidirectional/forward_rnn/zeros", "StatefulPartitionedCall/siamese_model/bidirectional/forward_rnn/strided_slice_1", "StatefulPartitionedCall/siamese_model/bidirectional/forward_rnn/TensorArrayUnstack/TensorListFromTensor", "StatefulPartitionedCall/siamese_model/bidirectional/forward_rnn/TensorArrayUnstack_1/TensorListFromTensor", "unknown", "unknown_0", "unknown_1"], "attr": {"parallel_iterations": {"i": "32"}, "_read_only_resource_inputs": {"list": {"i": ["9", "10", "11"]}}, "output_shapes": {"list": {"shape": [{}, {}, {}, {}, {"dim": [{"size": "-1"}, {"size": "50"}]}, {"dim": [{"size": "-1"}, {"size": "50"}]}, {}, {}, {}, {"dim": [{"size": "39"}, {"size": "50"}]}, {"dim": [{"size": "50"}]}, {"dim": [{"size": "50"}, {"size": "50"}]}]}}, "_lower_using_switch_merge": {"b": false}, "_num_original_outputs": {"i": "12"}, "_stateful_parallelism": {"b": false}, "cond": {"func": {"name": "__inference_siamese_model_bidirectional_forward_rnn_while_cond_1499_frozen_5377"}}, "body": {"func": {"name": "__inference_siamese_model_bidirectional_forward_rnn_while_body_1500_frozen_5375"}}, "T": {"list": {"type": ["DT_INT32", "DT_INT32", "DT_INT32", "DT_VARIANT", "DT_FLOAT", "DT_FLOAT", "DT_INT32", "DT_VARIANT", "DT_VARIANT", "DT_FLOAT", "DT_FLOAT", "DT_FLOAT"]}}}}, {"name": "StatefulPartitionedCall/siamese_model/bidirectional/backward_rnn/while", "op": "While", "input": ["StatefulPartitionedCall/siamese_model/bidirectional/backward_rnn/while/loop_counter", "StatefulPartitionedCall/siamese_model/bidirectional/backward_rnn/while/maximum_iterations", "StatefulPartitionedCall/siamese_model/bidirectional/backward_rnn/time", "StatefulPartitionedCall/siamese_model/bidirectional/backward_rnn/TensorArrayV2_1", "StatefulPartitionedCall/siamese_model/bidirectional/backward_rnn/zeros_like", "StatefulPartitionedCall/siamese_model/bidirectional/backward_rnn/zeros", "StatefulPartitionedCall/siamese_model/bidirectional/backward_rnn/strided_slice_1", "StatefulPartitionedCall/siamese_model/bidirectional/backward_rnn/TensorArrayUnstack/TensorListFromTensor", "StatefulPartitionedCall/siamese_model/bidirectional/backward_rnn/TensorArrayUnstack_1/TensorListFromTensor", "unknown_2", "unknown_3", "unknown_4"], "attr": {"_read_only_resource_inputs": {"list": {"i": ["9", "10", "11"]}}, "T": {"list": {"type": ["DT_INT32", "DT_INT32", "DT_INT32", "DT_VARIANT", "DT_FLOAT", "DT_FLOAT", "DT_INT32", "DT_VARIANT", "DT_VARIANT", "DT_FLOAT", "DT_FLOAT", "DT_FLOAT"]}}, "_num_original_outputs": {"i": "12"}, "body": {"func": {"name": "__inference_siamese_model_bidirectional_backward_rnn_while_body_1632_frozen_5373"}}, "output_shapes": {"list": {"shape": [{}, {}, {}, {}, {"dim": [{"size": "-1"}, {"size": "50"}]}, {"dim": [{"size": "-1"}, {"size": "50"}]}, {}, {}, {}, {"dim": [{"size": "39"}, {"size": "50"}]}, {"dim": [{"size": "50"}]}, {"dim": [{"size": "50"}, {"size": "50"}]}]}}, "parallel_iterations": {"i": "32"}, "cond": {"func": {"name": "__inference_siamese_model_bidirectional_backward_rnn_while_cond_1631_frozen_5376"}}, "_lower_using_switch_merge": {"b": false}, "_stateful_parallelism": {"b": false}}}, {"name": "StatefulPartitionedCall/siamese_model/bidirectional/forward_rnn/while_1", "op": "While", "input": ["StatefulPartitionedCall/siamese_model/bidirectional/forward_rnn/while_1/loop_counter", "StatefulPartitionedCall/siamese_model/bidirectional/forward_rnn/while_1/maximum_iterations", "StatefulPartitionedCall/siamese_model/bidirectional/forward_rnn/time_1", "StatefulPartitionedCall/siamese_model/bidirectional/forward_rnn/TensorArrayV2_5", "StatefulPartitionedCall/siamese_model/bidirectional/forward_rnn/zeros_like_1", "StatefulPartitionedCall/siamese_model/bidirectional/forward_rnn/zeros_1", "StatefulPartitionedCall/siamese_model/bidirectional/forward_rnn/strided_slice_5", "StatefulPartitionedCall/siamese_model/bidirectional/forward_rnn/TensorArrayUnstack_2/TensorListFromTensor", "StatefulPartitionedCall/siamese_model/bidirectional/forward_rnn/TensorArrayUnstack_3/TensorListFromTensor", "unknown", "unknown_0", "unknown_1"], "attr": {"output_shapes": {"list": {"shape": [{}, {}, {}, {}, {"dim": [{"size": "-1"}, {"size": "50"}]}, {"dim": [{"size": "-1"}, {"size": "50"}]}, {}, {}, {}, {"dim": [{"size": "39"}, {"size": "50"}]}, {"dim": [{"size": "50"}]}, {"dim": [{"size": "50"}, {"size": "50"}]}]}}, "_read_only_resource_inputs": {"list": {"i": ["9", "10", "11"]}}, "body": {"func": {"name": "__inference_siamese_model_bidirectional_forward_rnn_while_1_body_1759_frozen_5378"}}, "parallel_iterations": {"i": "32"}, "cond": {"func": {"name": "__inference_siamese_model_bidirectional_forward_rnn_while_1_cond_1758_frozen_5374"}}, "_stateful_parallelism": {"b": false}, "_lower_using_switch_merge": {"b": false}, "T": {"list": {"type": ["DT_INT32", "DT_INT32", "DT_INT32", "DT_VARIANT", "DT_FLOAT", "DT_FLOAT", "DT_INT32", "DT_VARIANT", "DT_VARIANT", "DT_FLOAT", "DT_FLOAT", "DT_FLOAT"]}}, "_num_original_outputs": {"i": "12"}}}, {"name": "StatefulPartitionedCall/siamese_model/bidirectional/backward_rnn/while_1", "op": "While", "input": ["StatefulPartitionedCall/siamese_model/bidirectional/backward_rnn/while_1/loop_counter", "StatefulPartitionedCall/siamese_model/bidirectional/backward_rnn/while_1/maximum_iterations", "StatefulPartitionedCall/siamese_model/bidirectional/backward_rnn/time_1", "StatefulPartitionedCall/siamese_model/bidirectional/backward_rnn/TensorArrayV2_5", "StatefulPartitionedCall/siamese_model/bidirectional/backward_rnn/zeros_like_1", "StatefulPartitionedCall/siamese_model/bidirectional/backward_rnn/zeros_1", "StatefulPartitionedCall/siamese_model/bidirectional/backward_rnn/strided_slice_5", "StatefulPartitionedCall/siamese_model/bidirectional/backward_rnn/TensorArrayUnstack_2/TensorListFromTensor", "StatefulPartitionedCall/siamese_model/bidirectional/backward_rnn/TensorArrayUnstack_3/TensorListFromTensor", "unknown_2", "unknown_3", "unknown_4"], "attr": {"body": {"func": {"name": "__inference_siamese_model_bidirectional_backward_rnn_while_1_body_1888_frozen_5372"}}, "T": {"list": {"type": ["DT_INT32", "DT_INT32", "DT_INT32", "DT_VARIANT", "DT_FLOAT", "DT_FLOAT", "DT_INT32", "DT_VARIANT", "DT_VARIANT", "DT_FLOAT", "DT_FLOAT", "DT_FLOAT"]}}, "_stateful_parallelism": {"b": false}, "parallel_iterations": {"i": "32"}, "output_shapes": {"list": {"shape": [{}, {}, {}, {}, {"dim": [{"size": "-1"}, {"size": "50"}]}, {"dim": [{"size": "-1"}, {"size": "50"}]}, {}, {}, {}, {"dim": [{"size": "39"}, {"size": "50"}]}, {"dim": [{"size": "50"}]}, {"dim": [{"size": "50"}, {"size": "50"}]}]}}, "_lower_using_switch_merge": {"b": false}, "cond": {"func": {"name": "__inference_siamese_model_bidirectional_backward_rnn_while_1_cond_1887_frozen_5371"}}, "_read_only_resource_inputs": {"list": {"i": ["9", "10", "11"]}}, "_num_original_outputs": {"i": "12"}}}, {"name": "StatefulPartitionedCall/siamese_model/bidirectional/forward_rnn/TensorArrayV2Stack/TensorListStack", "op": "TensorListStack", "input": ["StatefulPartitionedCall/siamese_model/bidirectional/forward_rnn/while:3", "StatefulPartitionedCall/siamese_model/bidirectional/forward_rnn/TensorArrayV2Stack/TensorListStack/element_shape"], "attr": {"element_dtype": {"type": "DT_FLOAT"}, "num_elements": {"i": "-1"}}}, {"name": "StatefulPartitionedCall/siamese_model/bidirectional/backward_rnn/TensorArrayV2Stack/TensorListStack", "op": "TensorListStack", "input": ["StatefulPartitionedCall/siamese_model/bidirectional/backward_rnn/while:3", "StatefulPartitionedCall/siamese_model/bidirectional/backward_rnn/TensorArrayV2Stack/TensorListStack/element_shape"], "attr": {"num_elements": {"i": "-1"}, "element_dtype": {"type": "DT_FLOAT"}}}, {"name": "StatefulPartitionedCall/siamese_model/bidirectional/forward_rnn/TensorArrayV2Stack_1/TensorListStack", "op": "TensorListStack", "input": ["StatefulPartitionedCall/siamese_model/bidirectional/forward_rnn/while_1:3", "StatefulPartitionedCall/siamese_model/bidirectional/forward_rnn/TensorArrayV2Stack_1/TensorListStack/element_shape"], "attr": {"element_dtype": {"type": "DT_FLOAT"}, "num_elements": {"i": "-1"}}}, {"name": "StatefulPartitionedCall/siamese_model/bidirectional/backward_rnn/TensorArrayV2Stack_1/TensorListStack", "op": "TensorListStack", "input": ["StatefulPartitionedCall/siamese_model/bidirectional/backward_rnn/while_1:3", "StatefulPartitionedCall/siamese_model/bidirectional/backward_rnn/TensorArrayV2Stack_1/TensorListStack/element_shape"], "attr": {"element_dtype": {"type": "DT_FLOAT"}, "num_elements": {"i": "-1"}}}, {"name": "StatefulPartitionedCall/siamese_model/bidirectional/forward_rnn/strided_slice_3", "op": "StridedSlice", "input": ["StatefulPartitionedCall/siamese_model/bidirectional/forward_rnn/TensorArrayV2Stack/TensorListStack", "StatefulPartitionedCall/siamese_model/bidirectional/forward_rnn/strided_slice_3/stack", "StatefulPartitionedCall/siamese_model/bidirectional/forward_rnn/strided_slice_3/stack_1", "StatefulPartitionedCall/siamese_model/bidirectional/forward_rnn/strided_slice_3/stack_2"], "attr": {"begin_mask": {"i": "0"}, "T": {"type": "DT_FLOAT"}, "new_axis_mask": {"i": "0"}, "ellipsis_mask": {"i": "0"}, "end_mask": {"i": "0"}, "shrink_axis_mask": {"i": "1"}, "Index": {"type": "DT_INT32"}}}, {"name": "StatefulPartitionedCall/siamese_model/bidirectional/backward_rnn/strided_slice_3", "op": "StridedSlice", "input": ["StatefulPartitionedCall/siamese_model/bidirectional/backward_rnn/TensorArrayV2Stack/TensorListStack", "StatefulPartitionedCall/siamese_model/bidirectional/backward_rnn/strided_slice_3/stack", "StatefulPartitionedCall/siamese_model/bidirectional/backward_rnn/strided_slice_3/stack_1", "StatefulPartitionedCall/siamese_model/bidirectional/backward_rnn/strided_slice_3/stack_2"], "attr": {"Index": {"type": "DT_INT32"}, "ellipsis_mask": {"i": "0"}, "end_mask": {"i": "0"}, "begin_mask": {"i": "0"}, "new_axis_mask": {"i": "0"}, "shrink_axis_mask": {"i": "1"}, "T": {"type": "DT_FLOAT"}}}, {"name": "StatefulPartitionedCall/siamese_model/bidirectional/forward_rnn/strided_slice_7", "op": "StridedSlice", "input": ["StatefulPartitionedCall/siamese_model/bidirectional/forward_rnn/TensorArrayV2Stack_1/TensorListStack", "StatefulPartitionedCall/siamese_model/bidirectional/forward_rnn/strided_slice_7/stack", "StatefulPartitionedCall/siamese_model/bidirectional/forward_rnn/strided_slice_7/stack_1", "StatefulPartitionedCall/siamese_model/bidirectional/forward_rnn/strided_slice_7/stack_2"], "attr": {"shrink_axis_mask": {"i": "1"}, "new_axis_mask": {"i": "0"}, "begin_mask": {"i": "0"}, "Index": {"type": "DT_INT32"}, "ellipsis_mask": {"i": "0"}, "end_mask": {"i": "0"}, "T": {"type": "DT_FLOAT"}}}, {"name": "StatefulPartitionedCall/siamese_model/bidirectional/backward_rnn/strided_slice_7", "op": "StridedSlice", "input": ["StatefulPartitionedCall/siamese_model/bidirectional/backward_rnn/TensorArrayV2Stack_1/TensorListStack", "StatefulPartitionedCall/siamese_model/bidirectional/backward_rnn/strided_slice_7/stack", "StatefulPartitionedCall/siamese_model/bidirectional/backward_rnn/strided_slice_7/stack_1", "StatefulPartitionedCall/siamese_model/bidirectional/backward_rnn/strided_slice_7/stack_2"], "attr": {"end_mask": {"i": "0"}, "ellipsis_mask": {"i": "0"}, "begin_mask": {"i": "0"}, "Index": {"type": "DT_INT32"}, "new_axis_mask": {"i": "0"}, "T": {"type": "DT_FLOAT"}, "shrink_axis_mask": {"i": "1"}}}, {"name": "StatefulPartitionedCall/siamese_model/bidirectional/concat", "op": "ConcatV2", "input": ["StatefulPartitionedCall/siamese_model/bidirectional/forward_rnn/strided_slice_3", "StatefulPartitionedCall/siamese_model/bidirectional/backward_rnn/strided_slice_3", "StatefulPartitionedCall/siamese_model/bidirectional/concat/axis"], "attr": {"T": {"type": "DT_FLOAT"}, "Tidx": {"type": "DT_INT32"}, "N": {"i": "2"}}}, {"name": "StatefulPartitionedCall/siamese_model/bidirectional/concat_1", "op": "ConcatV2", "input": ["StatefulPartitionedCall/siamese_model/bidirectional/forward_rnn/strided_slice_7", "StatefulPartitionedCall/siamese_model/bidirectional/backward_rnn/strided_slice_7", "StatefulPartitionedCall/siamese_model/bidirectional/concat_1/axis"], "attr": {"T": {"type": "DT_FLOAT"}, "Tidx": {"type": "DT_INT32"}, "N": {"i": "2"}}}, {"name": "StatefulPartitionedCall/siamese_model/batch_normalization/batchnorm/mul_1", "op": "Mul", "input": ["StatefulPartitionedCall/siamese_model/bidirectional/concat", "StatefulPartitionedCall/siamese_model/batch_normalization/batchnorm/mul"], "attr": {"T": {"type": "DT_FLOAT"}}}, {"name": "StatefulPartitionedCall/siamese_model/batch_normalization/batchnorm_1/mul_1", "op": "Mul", "input": ["StatefulPartitionedCall/siamese_model/bidirectional/concat_1", "StatefulPartitionedCall/siamese_model/batch_normalization/batchnorm_1/mul"], "attr": {"T": {"type": "DT_FLOAT"}}}, {"name": "StatefulPartitionedCall/siamese_model/batch_normalization/batchnorm/add_1", "op": "AddV2", "input": ["StatefulPartitionedCall/siamese_model/batch_normalization/batchnorm/mul_1", "StatefulPartitionedCall/siamese_model/batch_normalization/batchnorm/sub"], "attr": {"T": {"type": "DT_FLOAT"}}}, {"name": "StatefulPartitionedCall/siamese_model/batch_normalization/batchnorm_1/add_1", "op": "AddV2", "input": ["StatefulPartitionedCall/siamese_model/batch_normalization/batchnorm_1/mul_1", "StatefulPartitionedCall/siamese_model/batch_normalization/batchnorm_1/sub"], "attr": {"T": {"type": "DT_FLOAT"}}}, {"name": "StatefulPartitionedCall/siamese_model/dense/BiasAdd", "op": "_FusedMatMul", "input": ["StatefulPartitionedCall/siamese_model/batch_normalization/batchnorm/add_1", "StatefulPartitionedCall/siamese_model/dense/MatMul/ReadVariableOp", "StatefulPartitionedCall/siamese_model/dense/BiasAdd/ReadVariableOp"], "device": "/device:CPU:0", "attr": {"num_args": {"i": "1"}, "T": {"type": "DT_FLOAT"}, "fused_ops": {"list": {"s": ["Qmlhc0FkZA=="]}}, "transpose_a": {"b": false}, "transpose_b": {"b": false}, "epsilon": {"f": 0.0}}}, {"name": "StatefulPartitionedCall/siamese_model/dense/BiasAdd_1", "op": "_FusedMatMul", "input": ["StatefulPartitionedCall/siamese_model/batch_normalization/batchnorm_1/add_1", "StatefulPartitionedCall/siamese_model/dense/MatMul_1/ReadVariableOp", "StatefulPartitionedCall/siamese_model/dense/BiasAdd_1/ReadVariableOp"], "device": "/device:CPU:0", "attr": {"transpose_a": {"b": false}, "T": {"type": "DT_FLOAT"}, "epsilon": {"f": 0.0}, "fused_ops": {"list": {"s": ["Qmlhc0FkZA=="]}}, "transpose_b": {"b": false}, "num_args": {"i": "1"}}}, {"name": "StatefulPartitionedCall/siamese_model/dense/Sigmoid", "op": "Sigmoid", "input": ["StatefulPartitionedCall/siamese_model/dense/BiasAdd"], "attr": {"T": {"type": "DT_FLOAT"}}}, {"name": "StatefulPartitionedCall/siamese_model/dense/Sigmoid_1", "op": "Sigmoid", "input": ["StatefulPartitionedCall/siamese_model/dense/BiasAdd_1"], "attr": {"T": {"type": "DT_FLOAT"}}}, {"name": "StatefulPartitionedCall/siamese_model/lambda/l2_normalize/Square", "op": "Square", "input": ["StatefulPartitionedCall/siamese_model/dense/Sigmoid"], "attr": {"T": {"type": "DT_FLOAT"}}}, {"name": "StatefulPartitionedCall/siamese_model/lambda/l2_normalize_1/Square", "op": "Square", "input": ["StatefulPartitionedCall/siamese_model/dense/Sigmoid_1"], "attr": {"T": {"type": "DT_FLOAT"}}}, {"name": "StatefulPartitionedCall/siamese_model/lambda/l2_normalize/Sum", "op": "Sum", "input": ["StatefulPartitionedCall/siamese_model/lambda/l2_normalize/Square", "StatefulPartitionedCall/siamese_model/lambda/l2_normalize/Sum/reduction_indices"], "attr": {"keep_dims": {"b": true}, "Tidx": {"type": "DT_INT32"}, "T": {"type": "DT_FLOAT"}}}, {"name": "StatefulPartitionedCall/siamese_model/lambda/l2_normalize_1/Sum", "op": "Sum", "input": ["StatefulPartitionedCall/siamese_model/lambda/l2_normalize_1/Square", "StatefulPartitionedCall/siamese_model/lambda/l2_normalize_1/Sum/reduction_indices"], "attr": {"T": {"type": "DT_FLOAT"}, "Tidx": {"type": "DT_INT32"}, "keep_dims": {"b": true}}}, {"name": "StatefulPartitionedCall/siamese_model/lambda/l2_normalize/Maximum", "op": "Maximum", "input": ["StatefulPartitionedCall/siamese_model/lambda/l2_normalize/Sum", "StatefulPartitionedCall/siamese_model/lambda/l2_normalize/Maximum/y"], "attr": {"T": {"type": "DT_FLOAT"}}}, {"name": "StatefulPartitionedCall/siamese_model/lambda/l2_normalize_1/Maximum", "op": "Maximum", "input": ["StatefulPartitionedCall/siamese_model/lambda/l2_normalize_1/Sum", "StatefulPartitionedCall/siamese_model/lambda/l2_normalize_1/Maximum/y"], "attr": {"T": {"type": "DT_FLOAT"}}}, {"name": "StatefulPartitionedCall/siamese_model/lambda/l2_normalize/Rsqrt", "op": "Rsqrt", "input": ["StatefulPartitionedCall/siamese_model/lambda/l2_normalize/Maximum"], "attr": {"T": {"type": "DT_FLOAT"}}}, {"name": "StatefulPartitionedCall/siamese_model/lambda/l2_normalize_1/Rsqrt", "op": "Rsqrt", "input": ["StatefulPartitionedCall/siamese_model/lambda/l2_normalize_1/Maximum"], "attr": {"T": {"type": "DT_FLOAT"}}}, {"name": "StatefulPartitionedCall/siamese_model/lambda/l2_normalize", "op": "Mul", "input": ["StatefulPartitionedCall/siamese_model/dense/Sigmoid", "StatefulPartitionedCall/siamese_model/lambda/l2_normalize/Rsqrt"], "attr": {"T": {"type": "DT_FLOAT"}}}, {"name": "StatefulPartitionedCall/siamese_model/lambda/l2_normalize_1", "op": "Mul", "input": ["StatefulPartitionedCall/siamese_model/dense/Sigmoid_1", "StatefulPartitionedCall/siamese_model/lambda/l2_normalize_1/Rsqrt"], "attr": {"T": {"type": "DT_FLOAT"}}}, {"name": "StatefulPartitionedCall/siamese_model/lambda/mul", "op": "Mul", "input": ["StatefulPartitionedCall/siamese_model/lambda/l2_normalize", "StatefulPartitionedCall/siamese_model/lambda/l2_normalize_1"], "attr": {"T": {"type": "DT_FLOAT"}}}, {"name": "StatefulPartitionedCall/siamese_model/lambda/Sum", "op": "Sum", "input": ["StatefulPartitionedCall/siamese_model/lambda/mul", "StatefulPartitionedCall/siamese_model/lambda/Sum/reduction_indices"], "attr": {"keep_dims": {"b": false}, "Tidx": {"type": "DT_INT32"}, "T": {"type": "DT_FLOAT"}}}, {"name": "StatefulPartitionedCall/siamese_model/lambda/Neg", "op": "Neg", "input": ["StatefulPartitionedCall/siamese_model/lambda/Sum"], "attr": {"T": {"type": "DT_FLOAT"}}}, {"name": "StatefulPartitionedCall/siamese_model/lambda/Mul_1", "op": "Mul", "input": ["StatefulPartitionedCall/siamese_model/lambda/Mul_1/x", "StatefulPartitionedCall/siamese_model/lambda/Neg"], "attr": {"T": {"type": "DT_FLOAT"}}}, {"name": "Identity", "op": "Identity", "input": ["StatefulPartitionedCall/siamese_model/lambda/Mul_1"], "attr": {"T": {"type": "DT_FLOAT"}}}], "library": {"function": [{"signature": {"name": "__inference_siamese_model_bidirectional_forward_rnn_while_1_cond_1758_frozen_5374", "inputArg": [{"name": "siamese_model_bidirectional_forward_rnn_while_1_siamese_model_bidirectional_forward_rnn_while_1_loop_counter", "type": "DT_INT32"}, {"name": "siamese_model_bidirectional_forward_rnn_while_1_siamese_model_bidirectional_forward_rnn_while_1_maximum_iterations", "type": "DT_INT32"}, {"name": "siamese_model_bidirectional_forward_rnn_while_1_placeholder", "type": "DT_INT32"}, {"name": "siamese_model_bidirectional_forward_rnn_while_1_placeholder_1", "type": "DT_VARIANT"}, {"name": "siamese_model_bidirectional_forward_rnn_while_1_placeholder_2", "type": "DT_FLOAT"}, {"name": "siamese_model_bidirectional_forward_rnn_while_1_placeholder_3", "type": "DT_FLOAT"}, {"name": "siamese_model_bidirectional_forward_rnn_while_1_less_siamese_model_bidirectional_forward_rnn_strided_slice_5", "type": "DT_INT32"}, {"name": "siamese_model_bidirectional_forward_rnn_while_1_siamese_model_bidirectional_forward_rnn_while_1_cond_1758___redundant_placeholder0", "type": "DT_VARIANT"}, {"name": "siamese_model_bidirectional_forward_rnn_while_1_siamese_model_bidirectional_forward_rnn_while_1_cond_1758___redundant_placeholder1", "type": "DT_VARIANT"}, {"name": "siamese_model_bidirectional_forward_rnn_while_1_siamese_model_bidirectional_forward_rnn_while_1_cond_1758___redundant_placeholder2", "type": "DT_FLOAT"}, {"name": "siamese_model_bidirectional_forward_rnn_while_1_siamese_model_bidirectional_forward_rnn_while_1_cond_1758___redundant_placeholder3", "type": "DT_FLOAT"}, {"name": "siamese_model_bidirectional_forward_rnn_while_1_siamese_model_bidirectional_forward_rnn_while_1_cond_1758___redundant_placeholder4", "type": "DT_FLOAT"}], "outputArg": [{"name": "siamese_model_bidirectional_forward_rnn_while_1_identity", "type": "DT_BOOL"}]}, "nodeDef": [{"name": "siamese_model/bidirectional/forward_rnn/while_1/Less", "op": "Less", "input": ["siamese_model_bidirectional_forward_rnn_while_1_placeholder", "siamese_model_bidirectional_forward_rnn_while_1_less_siamese_model_bidirectional_forward_rnn_strided_slice_5"], "attr": {"T": {"type": "DT_INT32"}}}], "ret": {"siamese_model_bidirectional_forward_rnn_while_1_identity": "siamese_model/bidirectional/forward_rnn/while_1/Less:z:0"}, "attr": {"_construction_context": {"s": "a0VhZ2VyUnVudGltZQ=="}}, "argAttr": {"8": {"attr": {"_output_shapes": {"list": {"shape": [{"unknownRank": true}]}}}}, "5": {"attr": {"_output_shapes": {"list": {"shape": [{"dim": [{"size": "-1"}, {"size": "50"}]}]}}}}, "7": {"attr": {"_output_shapes": {"list": {"shape": [{"unknownRank": true}]}}}}, "0": {"attr": {"_output_shapes": {"list": {"shape": [{}]}}}}, "2": {"attr": {"_output_shapes": {"list": {"shape": [{}]}}}}, "4": {"attr": {"_output_shapes": {"list": {"shape": [{"dim": [{"size": "-1"}, {"size": "50"}]}]}}}}, "1": {"attr": {"_output_shapes": {"list": {"shape": [{}]}}}}, "6": {"attr": {"_output_shapes": {"list": {"shape": [{}]}}}}, "3": {"attr": {"_output_shapes": {"list": {"shape": [{}]}}}}}}, {"signature": {"name": "__inference_siamese_model_bidirectional_forward_rnn_while_1_body_1759_frozen_5378", "inputArg": [{"name": "siamese_model_bidirectional_forward_rnn_while_1_siamese_model_bidirectional_forward_rnn_while_1_loop_counter", "type": "DT_INT32"}, {"name": "siamese_model_bidirectional_forward_rnn_while_1_siamese_model_bidirectional_forward_rnn_while_1_maximum_iterations", "type": "DT_INT32"}, {"name": "siamese_model_bidirectional_forward_rnn_while_1_placeholder", "type": "DT_INT32"}, {"name": "siamese_model_bidirectional_forward_rnn_while_1_placeholder_1", "type": "DT_VARIANT"}, {"name": "siamese_model_bidirectional_forward_rnn_while_1_placeholder_2", "type": "DT_FLOAT"}, {"name": "siamese_model_bidirectional_forward_rnn_while_1_placeholder_3", "type": "DT_FLOAT"}, {"name": "siamese_model_bidirectional_forward_rnn_while_1_siamese_model_bidirectional_forward_rnn_strided_slice_5_0", "type": "DT_INT32"}, {"name": "siamese_model_bidirectional_forward_rnn_while_1_tensorarrayv2read_tensorlistgetitem_siamese_model_bidirectional_forward_rnn_tensorarrayunstack_2_tensorlistfromtensor_0", "type": "DT_VARIANT"}, {"name": "siamese_model_bidirectional_forward_rnn_while_1_tensorarrayv2read_1_tensorlistgetitem_siamese_model_bidirectional_forward_rnn_tensorarrayunstack_3_tensorlistfromtensor_0", "type": "DT_VARIANT"}, {"name": "siamese_model_bidirectional_forward_rnn_while_1_stacked_rnn_cells_simple_rnn_cell_matmul_readvariableop_resource_0", "type": "DT_FLOAT"}, {"name": "siamese_model_bidirectional_forward_rnn_while_1_stacked_rnn_cells_simple_rnn_cell_biasadd_readvariableop_resource_0", "type": "DT_FLOAT"}, {"name": "siamese_model_bidirectional_forward_rnn_while_1_stacked_rnn_cells_simple_rnn_cell_matmul_1_readvariableop_resource_0", "type": "DT_FLOAT"}], "outputArg": [{"name": "siamese_model_bidirectional_forward_rnn_while_1_identity", "type": "DT_INT32"}, {"name": "siamese_model_bidirectional_forward_rnn_while_1_identity_1", "type": "DT_INT32"}, {"name": "siamese_model_bidirectional_forward_rnn_while_1_identity_2", "type": "DT_INT32"}, {"name": "siamese_model_bidirectional_forward_rnn_while_1_identity_3", "type": "DT_VARIANT"}, {"name": "siamese_model_bidirectional_forward_rnn_while_1_identity_4", "type": "DT_FLOAT"}, {"name": "siamese_model_bidirectional_forward_rnn_while_1_identity_5", "type": "DT_FLOAT"}, {"name": "siamese_model_bidirectional_forward_rnn_while_1_siamese_model_bidirectional_forward_rnn_strided_slice_5", "type": "DT_INT32"}, {"name": "siamese_model_bidirectional_forward_rnn_while_1_tensorarrayv2read_tensorlistgetitem_siamese_model_bidirectional_forward_rnn_tensorarrayunstack_2_tensorlistfromtensor", "type": "DT_VARIANT"}, {"name": "siamese_model_bidirectional_forward_rnn_while_1_tensorarrayv2read_1_tensorlistgetitem_siamese_model_bidirectional_forward_rnn_tensorarrayunstack_3_tensorlistfromtensor", "type": "DT_VARIANT"}, {"name": "siamese_model_bidirectional_forward_rnn_while_1_stacked_rnn_cells_simple_rnn_cell_matmul_readvariableop_resource", "type": "DT_FLOAT"}, {"name": "siamese_model_bidirectional_forward_rnn_while_1_stacked_rnn_cells_simple_rnn_cell_biasadd_readvariableop_resource", "type": "DT_FLOAT"}, {"name": "siamese_model_bidirectional_forward_rnn_while_1_stacked_rnn_cells_simple_rnn_cell_matmul_1_readvariableop_resource", "type": "DT_FLOAT"}], "isStateful": true, "controlOutput": ["siamese_model/bidirectional/forward_rnn/while_1/stacked_rnn_cells/simple_rnn_cell/BiasAdd/ReadVariableOp", "siamese_model/bidirectional/forward_rnn/while_1/stacked_rnn_cells/simple_rnn_cell/MatMul/ReadVariableOp", "siamese_model/bidirectional/forward_rnn/while_1/stacked_rnn_cells/simple_rnn_cell/MatMul_1/ReadVariableOp"]}, "nodeDef": [{"name": "__inference_siamese_model_bidirectional_forward_rnn_while_1_body_1759_frozen_5378/siamese_model/bidirectional/forward_rnn/while_1/add/y", "op": "Const", "attr": {"value": {"tensor": {"dtype": "DT_INT32", "tensorShape": {}}}, "dtype": {"type": "DT_INT32"}}}, {"name": "__inference_siamese_model_bidirectional_forward_rnn_while_1_body_1759_frozen_5378/siamese_model/bidirectional/forward_rnn/while_1/TensorArrayV2Read_1/TensorListGetItem/element_shape", "op": "Const", "attr": {"dtype": {"type": "DT_INT32"}, "value": {"tensor": {"dtype": "DT_INT32", "tensorShape": {"dim": [{"size": "2"}]}}}}}, {"name": "__inference_siamese_model_bidirectional_forward_rnn_while_1_body_1759_frozen_5378/siamese_model/bidirectional/forward_rnn/while_1/TensorArrayV2Read/TensorListGetItem/element_shape", "op": "Const", "attr": {"value": {"tensor": {"dtype": "DT_INT32", "tensorShape": {"dim": [{"size": "2"}]}}}, "dtype": {"type": "DT_INT32"}}}, {"name": "__inference_siamese_model_bidirectional_forward_rnn_while_1_body_1759_frozen_5378/siamese_model/bidirectional/forward_rnn/while_1/add_1/y", "op": "Const", "attr": {"value": {"tensor": {"dtype": "DT_INT32", "tensorShape": {}}}, "dtype": {"type": "DT_INT32"}}}, {"name": "siamese_model/bidirectional/forward_rnn/while_1/stacked_rnn_cells/simple_rnn_cell/MatMul/ReadVariableOp", "op": "Identity", "input": ["siamese_model_bidirectional_forward_rnn_while_1_stacked_rnn_cells_simple_rnn_cell_matmul_readvariableop_resource_0"], "attr": {"T": {"type": "DT_FLOAT"}}}, {"name": "siamese_model/bidirectional/forward_rnn/while_1/stacked_rnn_cells/simple_rnn_cell/BiasAdd/ReadVariableOp", "op": "Identity", "input": ["siamese_model_bidirectional_forward_rnn_while_1_stacked_rnn_cells_simple_rnn_cell_biasadd_readvariableop_resource_0"], "attr": {"T": {"type": "DT_FLOAT"}}}, {"name": "siamese_model/bidirectional/forward_rnn/while_1/stacked_rnn_cells/simple_rnn_cell/MatMul_1/ReadVariableOp", "op": "Identity", "input": ["siamese_model_bidirectional_forward_rnn_while_1_stacked_rnn_cells_simple_rnn_cell_matmul_1_readvariableop_resource_0"], "attr": {"T": {"type": "DT_FLOAT"}}}, {"name": "siamese_model/bidirectional/forward_rnn/while_1/add", "op": "AddV2", "input": ["siamese_model_bidirectional_forward_rnn_while_1_placeholder", "__inference_siamese_model_bidirectional_forward_rnn_while_1_body_1759_frozen_5378/siamese_model/bidirectional/forward_rnn/while_1/add/y:output:0"], "attr": {"T": {"type": "DT_INT32"}}}, {"name": "siamese_model/bidirectional/forward_rnn/while_1/TensorArrayV2Read_1/TensorListGetItem", "op": "TensorListGetItem", "input": ["siamese_model_bidirectional_forward_rnn_while_1_tensorarrayv2read_1_tensorlistgetitem_siamese_model_bidirectional_forward_rnn_tensorarrayunstack_3_tensorlistfromtensor_0", "siamese_model_bidirectional_forward_rnn_while_1_placeholder", "__inference_siamese_model_bidirectional_forward_rnn_while_1_body_1759_frozen_5378/siamese_model/bidirectional/forward_rnn/while_1/TensorArrayV2Read_1/TensorListGetItem/element_shape:output:0"], "attr": {"element_dtype": {"type": "DT_BOOL"}}}, {"name": "siamese_model/bidirectional/forward_rnn/while_1/TensorArrayV2Read/TensorListGetItem", "op": "TensorListGetItem", "input": ["siamese_model_bidirectional_forward_rnn_while_1_tensorarrayv2read_tensorlistgetitem_siamese_model_bidirectional_forward_rnn_tensorarrayunstack_2_tensorlistfromtensor_0", "siamese_model_bidirectional_forward_rnn_while_1_placeholder", "__inference_siamese_model_bidirectional_forward_rnn_while_1_body_1759_frozen_5378/siamese_model/bidirectional/forward_rnn/while_1/TensorArrayV2Read/TensorListGetItem/element_shape:output:0"], "attr": {"element_dtype": {"type": "DT_FLOAT"}}}, {"name": "siamese_model/bidirectional/forward_rnn/while_1/add_1", "op": "AddV2", "input": ["siamese_model_bidirectional_forward_rnn_while_1_siamese_model_bidirectional_forward_rnn_while_1_loop_counter", "__inference_siamese_model_bidirectional_forward_rnn_while_1_body_1759_frozen_5378/siamese_model/bidirectional/forward_rnn/while_1/add_1/y:output:0"], "attr": {"T": {"type": "DT_INT32"}}}, {"name": "siamese_model/bidirectional/forward_rnn/while_1/stacked_rnn_cells/simple_rnn_cell/MatMul_1", "op": "MatMul", "input": ["siamese_model_bidirectional_forward_rnn_while_1_placeholder_3", "siamese_model/bidirectional/forward_rnn/while_1/stacked_rnn_cells/simple_rnn_cell/MatMul_1/ReadVariableOp:output:0"], "attr": {"transpose_a": {"b": false}, "transpose_b": {"b": false}, "T": {"type": "DT_FLOAT"}}}, {"name": "siamese_model/bidirectional/forward_rnn/while_1/NoOp", "op": "NoOp", "input": ["^siamese_model/bidirectional/forward_rnn/while_1/stacked_rnn_cells/simple_rnn_cell/BiasAdd/ReadVariableOp", "^siamese_model/bidirectional/forward_rnn/while_1/stacked_rnn_cells/simple_rnn_cell/MatMul/ReadVariableOp", "^siamese_model/bidirectional/forward_rnn/while_1/stacked_rnn_cells/simple_rnn_cell/MatMul_1/ReadVariableOp"], "attr": {"_acd_function_control_output": {"b": true}}}, {"name": "siamese_model/bidirectional/forward_rnn/while_1/stacked_rnn_cells/simple_rnn_cell/MatMul", "op": "MatMul", "input": ["siamese_model/bidirectional/forward_rnn/while_1/TensorArrayV2Read/TensorListGetItem:item:0", "siamese_model/bidirectional/forward_rnn/while_1/stacked_rnn_cells/simple_rnn_cell/MatMul/ReadVariableOp:output:0"], "attr": {"T": {"type": "DT_FLOAT"}, "transpose_b": {"b": false}, "transpose_a": {"b": false}}}, {"name": "siamese_model/bidirectional/forward_rnn/while_1/Identity_1", "op": "Identity", "input": ["siamese_model_bidirectional_forward_rnn_while_1_siamese_model_bidirectional_forward_rnn_while_1_maximum_iterations", "^siamese_model/bidirectional/forward_rnn/while_1/NoOp"], "attr": {"T": {"type": "DT_INT32"}}}, {"name": "siamese_model/bidirectional/forward_rnn/while_1/Identity_2", "op": "Identity", "input": ["siamese_model/bidirectional/forward_rnn/while_1/add:z:0", "^siamese_model/bidirectional/forward_rnn/while_1/NoOp"], "attr": {"T": {"type": "DT_INT32"}}}, {"name": "siamese_model/bidirectional/forward_rnn/while_1/Identity", "op": "Identity", "input": ["siamese_model/bidirectional/forward_rnn/while_1/add_1:z:0", "^siamese_model/bidirectional/forward_rnn/while_1/NoOp"], "attr": {"T": {"type": "DT_INT32"}}}, {"name": "siamese_model/bidirectional/forward_rnn/while_1/stacked_rnn_cells/simple_rnn_cell/BiasAdd", "op": "BiasAdd", "input": ["siamese_model/bidirectional/forward_rnn/while_1/stacked_rnn_cells/simple_rnn_cell/MatMul:product:0", "siamese_model/bidirectional/forward_rnn/while_1/stacked_rnn_cells/simple_rnn_cell/BiasAdd/ReadVariableOp:output:0"], "attr": {"T": {"type": "DT_FLOAT"}, "data_format": {"s": "TkhXQw=="}}}, {"name": "siamese_model/bidirectional/forward_rnn/while_1/stacked_rnn_cells/simple_rnn_cell/add", "op": "AddV2", "input": ["siamese_model/bidirectional/forward_rnn/while_1/stacked_rnn_cells/simple_rnn_cell/BiasAdd:output:0", "siamese_model/bidirectional/forward_rnn/while_1/stacked_rnn_cells/simple_rnn_cell/MatMul_1:product:0"], "attr": {"T": {"type": "DT_FLOAT"}}}, {"name": "siamese_model/bidirectional/forward_rnn/while_1/stacked_rnn_cells/simple_rnn_cell/Tanh", "op": "Tanh", "input": ["siamese_model/bidirectional/forward_rnn/while_1/stacked_rnn_cells/simple_rnn_cell/add:z:0"], "attr": {"T": {"type": "DT_FLOAT"}}}, {"name": "siamese_model/bidirectional/forward_rnn/while_1/SelectV2", "op": "SelectV2", "input": ["siamese_model/bidirectional/forward_rnn/while_1/TensorArrayV2Read_1/TensorListGetItem:item:0", "siamese_model/bidirectional/forward_rnn/while_1/stacked_rnn_cells/simple_rnn_cell/Tanh:y:0", "siamese_model_bidirectional_forward_rnn_while_1_placeholder_2"], "attr": {"T": {"type": "DT_FLOAT"}}}, {"name": "siamese_model/bidirectional/forward_rnn/while_1/SelectV2_1", "op": "SelectV2", "input": ["siamese_model/bidirectional/forward_rnn/while_1/TensorArrayV2Read_1/TensorListGetItem:item:0", "siamese_model/bidirectional/forward_rnn/while_1/stacked_rnn_cells/simple_rnn_cell/Tanh:y:0", "siamese_model_bidirectional_forward_rnn_while_1_placeholder_3"], "attr": {"T": {"type": "DT_FLOAT"}}}, {"name": "siamese_model/bidirectional/forward_rnn/while_1/TensorArrayV2Write/TensorListSetItem", "op": "TensorListSetItem", "input": ["siamese_model_bidirectional_forward_rnn_while_1_placeholder_1", "siamese_model_bidirectional_forward_rnn_while_1_placeholder", "siamese_model/bidirectional/forward_rnn/while_1/SelectV2:output:0"], "attr": {"element_dtype": {"type": "DT_FLOAT"}}, "experimentalType": {"typeId": "TFT_PRODUCT", "args": [{"typeId": "TFT_ARRAY", "args": [{"typeId": "TFT_TENSOR", "args": [{"typeId": "TFT_FLOAT"}]}]}]}}, {"name": "siamese_model/bidirectional/forward_rnn/while_1/Identity_4", "op": "Identity", "input": ["siamese_model/bidirectional/forward_rnn/while_1/SelectV2:output:0", "^siamese_model/bidirectional/forward_rnn/while_1/NoOp"], "attr": {"T": {"type": "DT_FLOAT"}}}, {"name": "siamese_model/bidirectional/forward_rnn/while_1/Identity_5", "op": "Identity", "input": ["siamese_model/bidirectional/forward_rnn/while_1/SelectV2_1:output:0", "^siamese_model/bidirectional/forward_rnn/while_1/NoOp"], "attr": {"T": {"type": "DT_FLOAT"}}}, {"name": "siamese_model/bidirectional/forward_rnn/while_1/Identity_3", "op": "Identity", "input": ["siamese_model/bidirectional/forward_rnn/while_1/TensorArrayV2Write/TensorListSetItem:output_handle:0", "^siamese_model/bidirectional/forward_rnn/while_1/NoOp"], "attr": {"T": {"type": "DT_VARIANT"}}}], "ret": {"siamese_model_bidirectional_forward_rnn_while_1_siamese_model_bidirectional_forward_rnn_strided_slice_5": "siamese_model_bidirectional_forward_rnn_while_1_siamese_model_bidirectional_forward_rnn_strided_slice_5_0", "siamese_model_bidirectional_forward_rnn_while_1_identity_4": "siamese_model/bidirectional/forward_rnn/while_1/Identity_4:output:0", "siamese_model_bidirectional_forward_rnn_while_1_stacked_rnn_cells_simple_rnn_cell_biasadd_readvariableop_resource": "siamese_model_bidirectional_forward_rnn_while_1_stacked_rnn_cells_simple_rnn_cell_biasadd_readvariableop_resource_0", "siamese_model_bidirectional_forward_rnn_while_1_stacked_rnn_cells_simple_rnn_cell_matmul_1_readvariableop_resource": "siamese_model_bidirectional_forward_rnn_while_1_stacked_rnn_cells_simple_rnn_cell_matmul_1_readvariableop_resource_0", "siamese_model_bidirectional_forward_rnn_while_1_identity_2": "siamese_model/bidirectional/forward_rnn/while_1/Identity_2:output:0", "siamese_model_bidirectional_forward_rnn_while_1_identity_1": "siamese_model/bidirectional/forward_rnn/while_1/Identity_1:output:0", "siamese_model_bidirectional_forward_rnn_while_1_identity_5": "siamese_model/bidirectional/forward_rnn/while_1/Identity_5:output:0", "siamese_model_bidirectional_forward_rnn_while_1_tensorarrayv2read_1_tensorlistgetitem_siamese_model_bidirectional_forward_rnn_tensorarrayunstack_3_tensorlistfromtensor": "siamese_model_bidirectional_forward_rnn_while_1_tensorarrayv2read_1_tensorlistgetitem_siamese_model_bidirectional_forward_rnn_tensorarrayunstack_3_tensorlistfromtensor_0", "siamese_model_bidirectional_forward_rnn_while_1_stacked_rnn_cells_simple_rnn_cell_matmul_readvariableop_resource": "siamese_model_bidirectional_forward_rnn_while_1_stacked_rnn_cells_simple_rnn_cell_matmul_readvariableop_resource_0", "siamese_model_bidirectional_forward_rnn_while_1_identity_3": "siamese_model/bidirectional/forward_rnn/while_1/Identity_3:output:0", "siamese_model_bidirectional_forward_rnn_while_1_identity": "siamese_model/bidirectional/forward_rnn/while_1/Identity:output:0", "siamese_model_bidirectional_forward_rnn_while_1_tensorarrayv2read_tensorlistgetitem_siamese_model_bidirectional_forward_rnn_tensorarrayunstack_2_tensorlistfromtensor": "siamese_model_bidirectional_forward_rnn_while_1_tensorarrayv2read_tensorlistgetitem_siamese_model_bidirectional_forward_rnn_tensorarrayunstack_2_tensorlistfromtensor_0"}, "attr": {"_construction_context": {"s": "a0VhZ2VyUnVudGltZQ=="}}, "controlRet": {"siamese_model/bidirectional/forward_rnn/while_1/stacked_rnn_cells/simple_rnn_cell/BiasAdd/ReadVariableOp": "siamese_model/bidirectional/forward_rnn/while_1/stacked_rnn_cells/simple_rnn_cell/BiasAdd/ReadVariableOp", "siamese_model/bidirectional/forward_rnn/while_1/stacked_rnn_cells/simple_rnn_cell/MatMul/ReadVariableOp": "siamese_model/bidirectional/forward_rnn/while_1/stacked_rnn_cells/simple_rnn_cell/MatMul/ReadVariableOp", "siamese_model/bidirectional/forward_rnn/while_1/stacked_rnn_cells/simple_rnn_cell/MatMul_1/ReadVariableOp": "siamese_model/bidirectional/forward_rnn/while_1/stacked_rnn_cells/simple_rnn_cell/MatMul_1/ReadVariableOp"}, "argAttr": {"1": {"attr": {"_output_shapes": {"list": {"shape": [{}]}}}}, "8": {"attr": {"_output_shapes": {"list": {"shape": [{}]}}}}, "7": {"attr": {"_output_shapes": {"list": {"shape": [{}]}}}}, "2": {"attr": {"_output_shapes": {"list": {"shape": [{}]}}}}, "5": {"attr": {"_output_shapes": {"list": {"shape": [{"dim": [{"size": "-1"}, {"size": "50"}]}]}}}}, "0": {"attr": {"_output_shapes": {"list": {"shape": [{}]}}}}, "6": {"attr": {"_output_shapes": {"list": {"shape": [{}]}}}}, "3": {"attr": {"_output_shapes": {"list": {"shape": [{}]}}}}, "4": {"attr": {"_output_shapes": {"list": {"shape": [{"dim": [{"size": "-1"}, {"size": "50"}]}]}}}}}}, {"signature": {"name": "__inference_siamese_model_bidirectional_backward_rnn_while_1_cond_1887_frozen_5371", "inputArg": [{"name": "siamese_model_bidirectional_backward_rnn_while_1_siamese_model_bidirectional_backward_rnn_while_1_loop_counter", "type": "DT_INT32"}, {"name": "siamese_model_bidirectional_backward_rnn_while_1_siamese_model_bidirectional_backward_rnn_while_1_maximum_iterations", "type": "DT_INT32"}, {"name": "siamese_model_bidirectional_backward_rnn_while_1_placeholder", "type": "DT_INT32"}, {"name": "siamese_model_bidirectional_backward_rnn_while_1_placeholder_1", "type": "DT_VARIANT"}, {"name": "siamese_model_bidirectional_backward_rnn_while_1_placeholder_2", "type": "DT_FLOAT"}, {"name": "siamese_model_bidirectional_backward_rnn_while_1_placeholder_3", "type": "DT_FLOAT"}, {"name": "siamese_model_bidirectional_backward_rnn_while_1_less_siamese_model_bidirectional_backward_rnn_strided_slice_5", "type": "DT_INT32"}, {"name": "siamese_model_bidirectional_backward_rnn_while_1_siamese_model_bidirectional_backward_rnn_while_1_cond_1887___redundant_placeholder0", "type": "DT_VARIANT"}, {"name": "siamese_model_bidirectional_backward_rnn_while_1_siamese_model_bidirectional_backward_rnn_while_1_cond_1887___redundant_placeholder1", "type": "DT_VARIANT"}, {"name": "siamese_model_bidirectional_backward_rnn_while_1_siamese_model_bidirectional_backward_rnn_while_1_cond_1887___redundant_placeholder2", "type": "DT_FLOAT"}, {"name": "siamese_model_bidirectional_backward_rnn_while_1_siamese_model_bidirectional_backward_rnn_while_1_cond_1887___redundant_placeholder3", "type": "DT_FLOAT"}, {"name": "siamese_model_bidirectional_backward_rnn_while_1_siamese_model_bidirectional_backward_rnn_while_1_cond_1887___redundant_placeholder4", "type": "DT_FLOAT"}], "outputArg": [{"name": "siamese_model_bidirectional_backward_rnn_while_1_identity", "type": "DT_BOOL"}]}, "nodeDef": [{"name": "siamese_model/bidirectional/backward_rnn/while_1/Less", "op": "Less", "input": ["siamese_model_bidirectional_backward_rnn_while_1_placeholder", "siamese_model_bidirectional_backward_rnn_while_1_less_siamese_model_bidirectional_backward_rnn_strided_slice_5"], "attr": {"T": {"type": "DT_INT32"}}}], "ret": {"siamese_model_bidirectional_backward_rnn_while_1_identity": "siamese_model/bidirectional/backward_rnn/while_1/Less:z:0"}, "attr": {"_construction_context": {"s": "a0VhZ2VyUnVudGltZQ=="}}, "argAttr": {"1": {"attr": {"_output_shapes": {"list": {"shape": [{}]}}}}, "4": {"attr": {"_output_shapes": {"list": {"shape": [{"dim": [{"size": "-1"}, {"size": "50"}]}]}}}}, "7": {"attr": {"_output_shapes": {"list": {"shape": [{"unknownRank": true}]}}}}, "5": {"attr": {"_output_shapes": {"list": {"shape": [{"dim": [{"size": "-1"}, {"size": "50"}]}]}}}}, "8": {"attr": {"_output_shapes": {"list": {"shape": [{"unknownRank": true}]}}}}, "2": {"attr": {"_output_shapes": {"list": {"shape": [{}]}}}}, "0": {"attr": {"_output_shapes": {"list": {"shape": [{}]}}}}, "6": {"attr": {"_output_shapes": {"list": {"shape": [{}]}}}}, "3": {"attr": {"_output_shapes": {"list": {"shape": [{}]}}}}}}, {"signature": {"name": "__inference_siamese_model_bidirectional_backward_rnn_while_cond_1631_frozen_5376", "inputArg": [{"name": "siamese_model_bidirectional_backward_rnn_while_siamese_model_bidirectional_backward_rnn_while_loop_counter", "type": "DT_INT32"}, {"name": "siamese_model_bidirectional_backward_rnn_while_siamese_model_bidirectional_backward_rnn_while_maximum_iterations", "type": "DT_INT32"}, {"name": "siamese_model_bidirectional_backward_rnn_while_placeholder", "type": "DT_INT32"}, {"name": "siamese_model_bidirectional_backward_rnn_while_placeholder_1", "type": "DT_VARIANT"}, {"name": "siamese_model_bidirectional_backward_rnn_while_placeholder_2", "type": "DT_FLOAT"}, {"name": "siamese_model_bidirectional_backward_rnn_while_placeholder_3", "type": "DT_FLOAT"}, {"name": "siamese_model_bidirectional_backward_rnn_while_less_siamese_model_bidirectional_backward_rnn_strided_slice_1", "type": "DT_INT32"}, {"name": "siamese_model_bidirectional_backward_rnn_while_siamese_model_bidirectional_backward_rnn_while_cond_1631___redundant_placeholder0", "type": "DT_VARIANT"}, {"name": "siamese_model_bidirectional_backward_rnn_while_siamese_model_bidirectional_backward_rnn_while_cond_1631___redundant_placeholder1", "type": "DT_VARIANT"}, {"name": "siamese_model_bidirectional_backward_rnn_while_siamese_model_bidirectional_backward_rnn_while_cond_1631___redundant_placeholder2", "type": "DT_FLOAT"}, {"name": "siamese_model_bidirectional_backward_rnn_while_siamese_model_bidirectional_backward_rnn_while_cond_1631___redundant_placeholder3", "type": "DT_FLOAT"}, {"name": "siamese_model_bidirectional_backward_rnn_while_siamese_model_bidirectional_backward_rnn_while_cond_1631___redundant_placeholder4", "type": "DT_FLOAT"}], "outputArg": [{"name": "siamese_model_bidirectional_backward_rnn_while_identity", "type": "DT_BOOL"}]}, "nodeDef": [{"name": "siamese_model/bidirectional/backward_rnn/while/Less", "op": "Less", "input": ["siamese_model_bidirectional_backward_rnn_while_placeholder", "siamese_model_bidirectional_backward_rnn_while_less_siamese_model_bidirectional_backward_rnn_strided_slice_1"], "attr": {"T": {"type": "DT_INT32"}}}], "ret": {"siamese_model_bidirectional_backward_rnn_while_identity": "siamese_model/bidirectional/backward_rnn/while/Less:z:0"}, "attr": {"_construction_context": {"s": "a0VhZ2VyUnVudGltZQ=="}}, "argAttr": {"2": {"attr": {"_output_shapes": {"list": {"shape": [{}]}}}}, "7": {"attr": {"_output_shapes": {"list": {"shape": [{"unknownRank": true}]}}}}, "1": {"attr": {"_output_shapes": {"list": {"shape": [{}]}}}}, "3": {"attr": {"_output_shapes": {"list": {"shape": [{}]}}}}, "4": {"attr": {"_output_shapes": {"list": {"shape": [{"dim": [{"size": "-1"}, {"size": "50"}]}]}}}}, "8": {"attr": {"_output_shapes": {"list": {"shape": [{"unknownRank": true}]}}}}, "6": {"attr": {"_output_shapes": {"list": {"shape": [{}]}}}}, "0": {"attr": {"_output_shapes": {"list": {"shape": [{}]}}}}, "5": {"attr": {"_output_shapes": {"list": {"shape": [{"dim": [{"size": "-1"}, {"size": "50"}]}]}}}}}}, {"signature": {"name": "__inference_siamese_model_bidirectional_backward_rnn_while_1_body_1888_frozen_5372", "inputArg": [{"name": "siamese_model_bidirectional_backward_rnn_while_1_siamese_model_bidirectional_backward_rnn_while_1_loop_counter", "type": "DT_INT32"}, {"name": "siamese_model_bidirectional_backward_rnn_while_1_siamese_model_bidirectional_backward_rnn_while_1_maximum_iterations", "type": "DT_INT32"}, {"name": "siamese_model_bidirectional_backward_rnn_while_1_placeholder", "type": "DT_INT32"}, {"name": "siamese_model_bidirectional_backward_rnn_while_1_placeholder_1", "type": "DT_VARIANT"}, {"name": "siamese_model_bidirectional_backward_rnn_while_1_placeholder_2", "type": "DT_FLOAT"}, {"name": "siamese_model_bidirectional_backward_rnn_while_1_placeholder_3", "type": "DT_FLOAT"}, {"name": "siamese_model_bidirectional_backward_rnn_while_1_siamese_model_bidirectional_backward_rnn_strided_slice_5_0", "type": "DT_INT32"}, {"name": "siamese_model_bidirectional_backward_rnn_while_1_tensorarrayv2read_tensorlistgetitem_siamese_model_bidirectional_backward_rnn_tensorarrayunstack_2_tensorlistfromtensor_0", "type": "DT_VARIANT"}, {"name": "siamese_model_bidirectional_backward_rnn_while_1_tensorarrayv2read_1_tensorlistgetitem_siamese_model_bidirectional_backward_rnn_tensorarrayunstack_3_tensorlistfromtensor_0", "type": "DT_VARIANT"}, {"name": "siamese_model_bidirectional_backward_rnn_while_1_stacked_rnn_cells_simple_rnn_cell_matmul_readvariableop_resource_0", "type": "DT_FLOAT"}, {"name": "siamese_model_bidirectional_backward_rnn_while_1_stacked_rnn_cells_simple_rnn_cell_biasadd_readvariableop_resource_0", "type": "DT_FLOAT"}, {"name": "siamese_model_bidirectional_backward_rnn_while_1_stacked_rnn_cells_simple_rnn_cell_matmul_1_readvariableop_resource_0", "type": "DT_FLOAT"}], "outputArg": [{"name": "siamese_model_bidirectional_backward_rnn_while_1_identity", "type": "DT_INT32"}, {"name": "siamese_model_bidirectional_backward_rnn_while_1_identity_1", "type": "DT_INT32"}, {"name": "siamese_model_bidirectional_backward_rnn_while_1_identity_2", "type": "DT_INT32"}, {"name": "siamese_model_bidirectional_backward_rnn_while_1_identity_3", "type": "DT_VARIANT"}, {"name": "siamese_model_bidirectional_backward_rnn_while_1_identity_4", "type": "DT_FLOAT"}, {"name": "siamese_model_bidirectional_backward_rnn_while_1_identity_5", "type": "DT_FLOAT"}, {"name": "siamese_model_bidirectional_backward_rnn_while_1_siamese_model_bidirectional_backward_rnn_strided_slice_5", "type": "DT_INT32"}, {"name": "siamese_model_bidirectional_backward_rnn_while_1_tensorarrayv2read_tensorlistgetitem_siamese_model_bidirectional_backward_rnn_tensorarrayunstack_2_tensorlistfromtensor", "type": "DT_VARIANT"}, {"name": "siamese_model_bidirectional_backward_rnn_while_1_tensorarrayv2read_1_tensorlistgetitem_siamese_model_bidirectional_backward_rnn_tensorarrayunstack_3_tensorlistfromtensor", "type": "DT_VARIANT"}, {"name": "siamese_model_bidirectional_backward_rnn_while_1_stacked_rnn_cells_simple_rnn_cell_matmul_readvariableop_resource", "type": "DT_FLOAT"}, {"name": "siamese_model_bidirectional_backward_rnn_while_1_stacked_rnn_cells_simple_rnn_cell_biasadd_readvariableop_resource", "type": "DT_FLOAT"}, {"name": "siamese_model_bidirectional_backward_rnn_while_1_stacked_rnn_cells_simple_rnn_cell_matmul_1_readvariableop_resource", "type": "DT_FLOAT"}], "isStateful": true, "controlOutput": ["siamese_model/bidirectional/backward_rnn/while_1/stacked_rnn_cells/simple_rnn_cell/BiasAdd/ReadVariableOp", "siamese_model/bidirectional/backward_rnn/while_1/stacked_rnn_cells/simple_rnn_cell/MatMul/ReadVariableOp", "siamese_model/bidirectional/backward_rnn/while_1/stacked_rnn_cells/simple_rnn_cell/MatMul_1/ReadVariableOp"]}, "nodeDef": [{"name": "__inference_siamese_model_bidirectional_backward_rnn_while_1_body_1888_frozen_5372/siamese_model/bidirectional/backward_rnn/while_1/add/y", "op": "Const", "attr": {"dtype": {"type": "DT_INT32"}, "value": {"tensor": {"dtype": "DT_INT32", "tensorShape": {}}}}}, {"name": "__inference_siamese_model_bidirectional_backward_rnn_while_1_body_1888_frozen_5372/siamese_model/bidirectional/backward_rnn/while_1/TensorArrayV2Read_1/TensorListGetItem/element_shape", "op": "Const", "attr": {"value": {"tensor": {"dtype": "DT_INT32", "tensorShape": {"dim": [{"size": "2"}]}}}, "dtype": {"type": "DT_INT32"}}}, {"name": "__inference_siamese_model_bidirectional_backward_rnn_while_1_body_1888_frozen_5372/siamese_model/bidirectional/backward_rnn/while_1/TensorArrayV2Read/TensorListGetItem/element_shape", "op": "Const", "attr": {"value": {"tensor": {"dtype": "DT_INT32", "tensorShape": {"dim": [{"size": "2"}]}}}, "dtype": {"type": "DT_INT32"}}}, {"name": "__inference_siamese_model_bidirectional_backward_rnn_while_1_body_1888_frozen_5372/siamese_model/bidirectional/backward_rnn/while_1/add_1/y", "op": "Const", "attr": {"value": {"tensor": {"dtype": "DT_INT32", "tensorShape": {}}}, "dtype": {"type": "DT_INT32"}}}, {"name": "siamese_model/bidirectional/backward_rnn/while_1/stacked_rnn_cells/simple_rnn_cell/MatMul/ReadVariableOp", "op": "Identity", "input": ["siamese_model_bidirectional_backward_rnn_while_1_stacked_rnn_cells_simple_rnn_cell_matmul_readvariableop_resource_0"], "attr": {"T": {"type": "DT_FLOAT"}}}, {"name": "siamese_model/bidirectional/backward_rnn/while_1/stacked_rnn_cells/simple_rnn_cell/BiasAdd/ReadVariableOp", "op": "Identity", "input": ["siamese_model_bidirectional_backward_rnn_while_1_stacked_rnn_cells_simple_rnn_cell_biasadd_readvariableop_resource_0"], "attr": {"T": {"type": "DT_FLOAT"}}}, {"name": "siamese_model/bidirectional/backward_rnn/while_1/stacked_rnn_cells/simple_rnn_cell/MatMul_1/ReadVariableOp", "op": "Identity", "input": ["siamese_model_bidirectional_backward_rnn_while_1_stacked_rnn_cells_simple_rnn_cell_matmul_1_readvariableop_resource_0"], "attr": {"T": {"type": "DT_FLOAT"}}}, {"name": "siamese_model/bidirectional/backward_rnn/while_1/add", "op": "AddV2", "input": ["siamese_model_bidirectional_backward_rnn_while_1_placeholder", "__inference_siamese_model_bidirectional_backward_rnn_while_1_body_1888_frozen_5372/siamese_model/bidirectional/backward_rnn/while_1/add/y:output:0"], "attr": {"T": {"type": "DT_INT32"}}}, {"name": "siamese_model/bidirectional/backward_rnn/while_1/TensorArrayV2Read_1/TensorListGetItem", "op": "TensorListGetItem", "input": ["siamese_model_bidirectional_backward_rnn_while_1_tensorarrayv2read_1_tensorlistgetitem_siamese_model_bidirectional_backward_rnn_tensorarrayunstack_3_tensorlistfromtensor_0", "siamese_model_bidirectional_backward_rnn_while_1_placeholder", "__inference_siamese_model_bidirectional_backward_rnn_while_1_body_1888_frozen_5372/siamese_model/bidirectional/backward_rnn/while_1/TensorArrayV2Read_1/TensorListGetItem/element_shape:output:0"], "attr": {"element_dtype": {"type": "DT_BOOL"}}}, {"name": "siamese_model/bidirectional/backward_rnn/while_1/TensorArrayV2Read/TensorListGetItem", "op": "TensorListGetItem", "input": ["siamese_model_bidirectional_backward_rnn_while_1_tensorarrayv2read_tensorlistgetitem_siamese_model_bidirectional_backward_rnn_tensorarrayunstack_2_tensorlistfromtensor_0", "siamese_model_bidirectional_backward_rnn_while_1_placeholder", "__inference_siamese_model_bidirectional_backward_rnn_while_1_body_1888_frozen_5372/siamese_model/bidirectional/backward_rnn/while_1/TensorArrayV2Read/TensorListGetItem/element_shape:output:0"], "attr": {"element_dtype": {"type": "DT_FLOAT"}}}, {"name": "siamese_model/bidirectional/backward_rnn/while_1/add_1", "op": "AddV2", "input": ["siamese_model_bidirectional_backward_rnn_while_1_siamese_model_bidirectional_backward_rnn_while_1_loop_counter", "__inference_siamese_model_bidirectional_backward_rnn_while_1_body_1888_frozen_5372/siamese_model/bidirectional/backward_rnn/while_1/add_1/y:output:0"], "attr": {"T": {"type": "DT_INT32"}}}, {"name": "siamese_model/bidirectional/backward_rnn/while_1/stacked_rnn_cells/simple_rnn_cell/MatMul_1", "op": "MatMul", "input": ["siamese_model_bidirectional_backward_rnn_while_1_placeholder_3", "siamese_model/bidirectional/backward_rnn/while_1/stacked_rnn_cells/simple_rnn_cell/MatMul_1/ReadVariableOp:output:0"], "attr": {"transpose_a": {"b": false}, "transpose_b": {"b": false}, "T": {"type": "DT_FLOAT"}}}, {"name": "siamese_model/bidirectional/backward_rnn/while_1/NoOp", "op": "NoOp", "input": ["^siamese_model/bidirectional/backward_rnn/while_1/stacked_rnn_cells/simple_rnn_cell/BiasAdd/ReadVariableOp", "^siamese_model/bidirectional/backward_rnn/while_1/stacked_rnn_cells/simple_rnn_cell/MatMul/ReadVariableOp", "^siamese_model/bidirectional/backward_rnn/while_1/stacked_rnn_cells/simple_rnn_cell/MatMul_1/ReadVariableOp"], "attr": {"_acd_function_control_output": {"b": true}}}, {"name": "siamese_model/bidirectional/backward_rnn/while_1/stacked_rnn_cells/simple_rnn_cell/MatMul", "op": "MatMul", "input": ["siamese_model/bidirectional/backward_rnn/while_1/TensorArrayV2Read/TensorListGetItem:item:0", "siamese_model/bidirectional/backward_rnn/while_1/stacked_rnn_cells/simple_rnn_cell/MatMul/ReadVariableOp:output:0"], "attr": {"T": {"type": "DT_FLOAT"}, "transpose_a": {"b": false}, "transpose_b": {"b": false}}}, {"name": "siamese_model/bidirectional/backward_rnn/while_1/Identity_1", "op": "Identity", "input": ["siamese_model_bidirectional_backward_rnn_while_1_siamese_model_bidirectional_backward_rnn_while_1_maximum_iterations", "^siamese_model/bidirectional/backward_rnn/while_1/NoOp"], "attr": {"T": {"type": "DT_INT32"}}}, {"name": "siamese_model/bidirectional/backward_rnn/while_1/Identity_2", "op": "Identity", "input": ["siamese_model/bidirectional/backward_rnn/while_1/add:z:0", "^siamese_model/bidirectional/backward_rnn/while_1/NoOp"], "attr": {"T": {"type": "DT_INT32"}}}, {"name": "siamese_model/bidirectional/backward_rnn/while_1/Identity", "op": "Identity", "input": ["siamese_model/bidirectional/backward_rnn/while_1/add_1:z:0", "^siamese_model/bidirectional/backward_rnn/while_1/NoOp"], "attr": {"T": {"type": "DT_INT32"}}}, {"name": "siamese_model/bidirectional/backward_rnn/while_1/stacked_rnn_cells/simple_rnn_cell/BiasAdd", "op": "BiasAdd", "input": ["siamese_model/bidirectional/backward_rnn/while_1/stacked_rnn_cells/simple_rnn_cell/MatMul:product:0", "siamese_model/bidirectional/backward_rnn/while_1/stacked_rnn_cells/simple_rnn_cell/BiasAdd/ReadVariableOp:output:0"], "attr": {"data_format": {"s": "TkhXQw=="}, "T": {"type": "DT_FLOAT"}}}, {"name": "siamese_model/bidirectional/backward_rnn/while_1/stacked_rnn_cells/simple_rnn_cell/add", "op": "AddV2", "input": ["siamese_model/bidirectional/backward_rnn/while_1/stacked_rnn_cells/simple_rnn_cell/BiasAdd:output:0", "siamese_model/bidirectional/backward_rnn/while_1/stacked_rnn_cells/simple_rnn_cell/MatMul_1:product:0"], "attr": {"T": {"type": "DT_FLOAT"}}}, {"name": "siamese_model/bidirectional/backward_rnn/while_1/stacked_rnn_cells/simple_rnn_cell/Tanh", "op": "Tanh", "input": ["siamese_model/bidirectional/backward_rnn/while_1/stacked_rnn_cells/simple_rnn_cell/add:z:0"], "attr": {"T": {"type": "DT_FLOAT"}}}, {"name": "siamese_model/bidirectional/backward_rnn/while_1/SelectV2", "op": "SelectV2", "input": ["siamese_model/bidirectional/backward_rnn/while_1/TensorArrayV2Read_1/TensorListGetItem:item:0", "siamese_model/bidirectional/backward_rnn/while_1/stacked_rnn_cells/simple_rnn_cell/Tanh:y:0", "siamese_model_bidirectional_backward_rnn_while_1_placeholder_2"], "attr": {"T": {"type": "DT_FLOAT"}}}, {"name": "siamese_model/bidirectional/backward_rnn/while_1/SelectV2_1", "op": "SelectV2", "input": ["siamese_model/bidirectional/backward_rnn/while_1/TensorArrayV2Read_1/TensorListGetItem:item:0", "siamese_model/bidirectional/backward_rnn/while_1/stacked_rnn_cells/simple_rnn_cell/Tanh:y:0", "siamese_model_bidirectional_backward_rnn_while_1_placeholder_3"], "attr": {"T": {"type": "DT_FLOAT"}}}, {"name": "siamese_model/bidirectional/backward_rnn/while_1/TensorArrayV2Write/TensorListSetItem", "op": "TensorListSetItem", "input": ["siamese_model_bidirectional_backward_rnn_while_1_placeholder_1", "siamese_model_bidirectional_backward_rnn_while_1_placeholder", "siamese_model/bidirectional/backward_rnn/while_1/SelectV2:output:0"], "attr": {"element_dtype": {"type": "DT_FLOAT"}}, "experimentalType": {"typeId": "TFT_PRODUCT", "args": [{"typeId": "TFT_ARRAY", "args": [{"typeId": "TFT_TENSOR", "args": [{"typeId": "TFT_FLOAT"}]}]}]}}, {"name": "siamese_model/bidirectional/backward_rnn/while_1/Identity_4", "op": "Identity", "input": ["siamese_model/bidirectional/backward_rnn/while_1/SelectV2:output:0", "^siamese_model/bidirectional/backward_rnn/while_1/NoOp"], "attr": {"T": {"type": "DT_FLOAT"}}}, {"name": "siamese_model/bidirectional/backward_rnn/while_1/Identity_5", "op": "Identity", "input": ["siamese_model/bidirectional/backward_rnn/while_1/SelectV2_1:output:0", "^siamese_model/bidirectional/backward_rnn/while_1/NoOp"], "attr": {"T": {"type": "DT_FLOAT"}}}, {"name": "siamese_model/bidirectional/backward_rnn/while_1/Identity_3", "op": "Identity", "input": ["siamese_model/bidirectional/backward_rnn/while_1/TensorArrayV2Write/TensorListSetItem:output_handle:0", "^siamese_model/bidirectional/backward_rnn/while_1/NoOp"], "attr": {"T": {"type": "DT_VARIANT"}}}], "ret": {"siamese_model_bidirectional_backward_rnn_while_1_stacked_rnn_cells_simple_rnn_cell_matmul_1_readvariableop_resource": "siamese_model_bidirectional_backward_rnn_while_1_stacked_rnn_cells_simple_rnn_cell_matmul_1_readvariableop_resource_0", "siamese_model_bidirectional_backward_rnn_while_1_identity_4": "siamese_model/bidirectional/backward_rnn/while_1/Identity_4:output:0", "siamese_model_bidirectional_backward_rnn_while_1_identity_5": "siamese_model/bidirectional/backward_rnn/while_1/Identity_5:output:0", "siamese_model_bidirectional_backward_rnn_while_1_siamese_model_bidirectional_backward_rnn_strided_slice_5": "siamese_model_bidirectional_backward_rnn_while_1_siamese_model_bidirectional_backward_rnn_strided_slice_5_0", "siamese_model_bidirectional_backward_rnn_while_1_tensorarrayv2read_tensorlistgetitem_siamese_model_bidirectional_backward_rnn_tensorarrayunstack_2_tensorlistfromtensor": "siamese_model_bidirectional_backward_rnn_while_1_tensorarrayv2read_tensorlistgetitem_siamese_model_bidirectional_backward_rnn_tensorarrayunstack_2_tensorlistfromtensor_0", "siamese_model_bidirectional_backward_rnn_while_1_identity": "siamese_model/bidirectional/backward_rnn/while_1/Identity:output:0", "siamese_model_bidirectional_backward_rnn_while_1_stacked_rnn_cells_simple_rnn_cell_biasadd_readvariableop_resource": "siamese_model_bidirectional_backward_rnn_while_1_stacked_rnn_cells_simple_rnn_cell_biasadd_readvariableop_resource_0", "siamese_model_bidirectional_backward_rnn_while_1_stacked_rnn_cells_simple_rnn_cell_matmul_readvariableop_resource": "siamese_model_bidirectional_backward_rnn_while_1_stacked_rnn_cells_simple_rnn_cell_matmul_readvariableop_resource_0", "siamese_model_bidirectional_backward_rnn_while_1_tensorarrayv2read_1_tensorlistgetitem_siamese_model_bidirectional_backward_rnn_tensorarrayunstack_3_tensorlistfromtensor": "siamese_model_bidirectional_backward_rnn_while_1_tensorarrayv2read_1_tensorlistgetitem_siamese_model_bidirectional_backward_rnn_tensorarrayunstack_3_tensorlistfromtensor_0", "siamese_model_bidirectional_backward_rnn_while_1_identity_1": "siamese_model/bidirectional/backward_rnn/while_1/Identity_1:output:0", "siamese_model_bidirectional_backward_rnn_while_1_identity_2": "siamese_model/bidirectional/backward_rnn/while_1/Identity_2:output:0", "siamese_model_bidirectional_backward_rnn_while_1_identity_3": "siamese_model/bidirectional/backward_rnn/while_1/Identity_3:output:0"}, "attr": {"_construction_context": {"s": "a0VhZ2VyUnVudGltZQ=="}}, "controlRet": {"siamese_model/bidirectional/backward_rnn/while_1/stacked_rnn_cells/simple_rnn_cell/BiasAdd/ReadVariableOp": "siamese_model/bidirectional/backward_rnn/while_1/stacked_rnn_cells/simple_rnn_cell/BiasAdd/ReadVariableOp", "siamese_model/bidirectional/backward_rnn/while_1/stacked_rnn_cells/simple_rnn_cell/MatMul_1/ReadVariableOp": "siamese_model/bidirectional/backward_rnn/while_1/stacked_rnn_cells/simple_rnn_cell/MatMul_1/ReadVariableOp", "siamese_model/bidirectional/backward_rnn/while_1/stacked_rnn_cells/simple_rnn_cell/MatMul/ReadVariableOp": "siamese_model/bidirectional/backward_rnn/while_1/stacked_rnn_cells/simple_rnn_cell/MatMul/ReadVariableOp"}, "argAttr": {"3": {"attr": {"_output_shapes": {"list": {"shape": [{}]}}}}, "6": {"attr": {"_output_shapes": {"list": {"shape": [{}]}}}}, "5": {"attr": {"_output_shapes": {"list": {"shape": [{"dim": [{"size": "-1"}, {"size": "50"}]}]}}}}, "8": {"attr": {"_output_shapes": {"list": {"shape": [{}]}}}}, "7": {"attr": {"_output_shapes": {"list": {"shape": [{}]}}}}, "0": {"attr": {"_output_shapes": {"list": {"shape": [{}]}}}}, "2": {"attr": {"_output_shapes": {"list": {"shape": [{}]}}}}, "1": {"attr": {"_output_shapes": {"list": {"shape": [{}]}}}}, "4": {"attr": {"_output_shapes": {"list": {"shape": [{"dim": [{"size": "-1"}, {"size": "50"}]}]}}}}}}, {"signature": {"name": "__inference_siamese_model_bidirectional_forward_rnn_while_cond_1499_frozen_5377", "inputArg": [{"name": "siamese_model_bidirectional_forward_rnn_while_siamese_model_bidirectional_forward_rnn_while_loop_counter", "type": "DT_INT32"}, {"name": "siamese_model_bidirectional_forward_rnn_while_siamese_model_bidirectional_forward_rnn_while_maximum_iterations", "type": "DT_INT32"}, {"name": "siamese_model_bidirectional_forward_rnn_while_placeholder", "type": "DT_INT32"}, {"name": "siamese_model_bidirectional_forward_rnn_while_placeholder_1", "type": "DT_VARIANT"}, {"name": "siamese_model_bidirectional_forward_rnn_while_placeholder_2", "type": "DT_FLOAT"}, {"name": "siamese_model_bidirectional_forward_rnn_while_placeholder_3", "type": "DT_FLOAT"}, {"name": "siamese_model_bidirectional_forward_rnn_while_less_siamese_model_bidirectional_forward_rnn_strided_slice_1", "type": "DT_INT32"}, {"name": "siamese_model_bidirectional_forward_rnn_while_siamese_model_bidirectional_forward_rnn_while_cond_1499___redundant_placeholder0", "type": "DT_VARIANT"}, {"name": "siamese_model_bidirectional_forward_rnn_while_siamese_model_bidirectional_forward_rnn_while_cond_1499___redundant_placeholder1", "type": "DT_VARIANT"}, {"name": "siamese_model_bidirectional_forward_rnn_while_siamese_model_bidirectional_forward_rnn_while_cond_1499___redundant_placeholder2", "type": "DT_FLOAT"}, {"name": "siamese_model_bidirectional_forward_rnn_while_siamese_model_bidirectional_forward_rnn_while_cond_1499___redundant_placeholder3", "type": "DT_FLOAT"}, {"name": "siamese_model_bidirectional_forward_rnn_while_siamese_model_bidirectional_forward_rnn_while_cond_1499___redundant_placeholder4", "type": "DT_FLOAT"}], "outputArg": [{"name": "siamese_model_bidirectional_forward_rnn_while_identity", "type": "DT_BOOL"}]}, "nodeDef": [{"name": "siamese_model/bidirectional/forward_rnn/while/Less", "op": "Less", "input": ["siamese_model_bidirectional_forward_rnn_while_placeholder", "siamese_model_bidirectional_forward_rnn_while_less_siamese_model_bidirectional_forward_rnn_strided_slice_1"], "attr": {"T": {"type": "DT_INT32"}}}], "ret": {"siamese_model_bidirectional_forward_rnn_while_identity": "siamese_model/bidirectional/forward_rnn/while/Less:z:0"}, "attr": {"_construction_context": {"s": "a0VhZ2VyUnVudGltZQ=="}}, "argAttr": {"7": {"attr": {"_output_shapes": {"list": {"shape": [{"unknownRank": true}]}}}}, "2": {"attr": {"_output_shapes": {"list": {"shape": [{}]}}}}, "8": {"attr": {"_output_shapes": {"list": {"shape": [{"unknownRank": true}]}}}}, "4": {"attr": {"_output_shapes": {"list": {"shape": [{"dim": [{"size": "-1"}, {"size": "50"}]}]}}}}, "6": {"attr": {"_output_shapes": {"list": {"shape": [{}]}}}}, "1": {"attr": {"_output_shapes": {"list": {"shape": [{}]}}}}, "3": {"attr": {"_output_shapes": {"list": {"shape": [{}]}}}}, "5": {"attr": {"_output_shapes": {"list": {"shape": [{"dim": [{"size": "-1"}, {"size": "50"}]}]}}}}, "0": {"attr": {"_output_shapes": {"list": {"shape": [{}]}}}}}}, {"signature": {"name": "__inference_siamese_model_bidirectional_forward_rnn_while_body_1500_frozen_5375", "inputArg": [{"name": "siamese_model_bidirectional_forward_rnn_while_siamese_model_bidirectional_forward_rnn_while_loop_counter", "type": "DT_INT32"}, {"name": "siamese_model_bidirectional_forward_rnn_while_siamese_model_bidirectional_forward_rnn_while_maximum_iterations", "type": "DT_INT32"}, {"name": "siamese_model_bidirectional_forward_rnn_while_placeholder", "type": "DT_INT32"}, {"name": "siamese_model_bidirectional_forward_rnn_while_placeholder_1", "type": "DT_VARIANT"}, {"name": "siamese_model_bidirectional_forward_rnn_while_placeholder_2", "type": "DT_FLOAT"}, {"name": "siamese_model_bidirectional_forward_rnn_while_placeholder_3", "type": "DT_FLOAT"}, {"name": "siamese_model_bidirectional_forward_rnn_while_siamese_model_bidirectional_forward_rnn_strided_slice_1_0", "type": "DT_INT32"}, {"name": "siamese_model_bidirectional_forward_rnn_while_tensorarrayv2read_tensorlistgetitem_siamese_model_bidirectional_forward_rnn_tensorarrayunstack_tensorlistfromtensor_0", "type": "DT_VARIANT"}, {"name": "siamese_model_bidirectional_forward_rnn_while_tensorarrayv2read_1_tensorlistgetitem_siamese_model_bidirectional_forward_rnn_tensorarrayunstack_1_tensorlistfromtensor_0", "type": "DT_VARIANT"}, {"name": "siamese_model_bidirectional_forward_rnn_while_stacked_rnn_cells_simple_rnn_cell_matmul_readvariableop_resource_0", "type": "DT_FLOAT"}, {"name": "siamese_model_bidirectional_forward_rnn_while_stacked_rnn_cells_simple_rnn_cell_biasadd_readvariableop_resource_0", "type": "DT_FLOAT"}, {"name": "siamese_model_bidirectional_forward_rnn_while_stacked_rnn_cells_simple_rnn_cell_matmul_1_readvariableop_resource_0", "type": "DT_FLOAT"}], "outputArg": [{"name": "siamese_model_bidirectional_forward_rnn_while_identity", "type": "DT_INT32"}, {"name": "siamese_model_bidirectional_forward_rnn_while_identity_1", "type": "DT_INT32"}, {"name": "siamese_model_bidirectional_forward_rnn_while_identity_2", "type": "DT_INT32"}, {"name": "siamese_model_bidirectional_forward_rnn_while_identity_3", "type": "DT_VARIANT"}, {"name": "siamese_model_bidirectional_forward_rnn_while_identity_4", "type": "DT_FLOAT"}, {"name": "siamese_model_bidirectional_forward_rnn_while_identity_5", "type": "DT_FLOAT"}, {"name": "siamese_model_bidirectional_forward_rnn_while_siamese_model_bidirectional_forward_rnn_strided_slice_1", "type": "DT_INT32"}, {"name": "siamese_model_bidirectional_forward_rnn_while_tensorarrayv2read_tensorlistgetitem_siamese_model_bidirectional_forward_rnn_tensorarrayunstack_tensorlistfromtensor", "type": "DT_VARIANT"}, {"name": "siamese_model_bidirectional_forward_rnn_while_tensorarrayv2read_1_tensorlistgetitem_siamese_model_bidirectional_forward_rnn_tensorarrayunstack_1_tensorlistfromtensor", "type": "DT_VARIANT"}, {"name": "siamese_model_bidirectional_forward_rnn_while_stacked_rnn_cells_simple_rnn_cell_matmul_readvariableop_resource", "type": "DT_FLOAT"}, {"name": "siamese_model_bidirectional_forward_rnn_while_stacked_rnn_cells_simple_rnn_cell_biasadd_readvariableop_resource", "type": "DT_FLOAT"}, {"name": "siamese_model_bidirectional_forward_rnn_while_stacked_rnn_cells_simple_rnn_cell_matmul_1_readvariableop_resource", "type": "DT_FLOAT"}], "isStateful": true, "controlOutput": ["siamese_model/bidirectional/forward_rnn/while/stacked_rnn_cells/simple_rnn_cell/BiasAdd/ReadVariableOp", "siamese_model/bidirectional/forward_rnn/while/stacked_rnn_cells/simple_rnn_cell/MatMul/ReadVariableOp", "siamese_model/bidirectional/forward_rnn/while/stacked_rnn_cells/simple_rnn_cell/MatMul_1/ReadVariableOp"]}, "nodeDef": [{"name": "__inference_siamese_model_bidirectional_forward_rnn_while_body_1500_frozen_5375/siamese_model/bidirectional/forward_rnn/while/add/y", "op": "Const", "attr": {"value": {"tensor": {"dtype": "DT_INT32", "tensorShape": {}}}, "dtype": {"type": "DT_INT32"}}}, {"name": "__inference_siamese_model_bidirectional_forward_rnn_while_body_1500_frozen_5375/siamese_model/bidirectional/forward_rnn/while/TensorArrayV2Read_1/TensorListGetItem/element_shape", "op": "Const", "attr": {"dtype": {"type": "DT_INT32"}, "value": {"tensor": {"dtype": "DT_INT32", "tensorShape": {"dim": [{"size": "2"}]}}}}}, {"name": "__inference_siamese_model_bidirectional_forward_rnn_while_body_1500_frozen_5375/siamese_model/bidirectional/forward_rnn/while/TensorArrayV2Read/TensorListGetItem/element_shape", "op": "Const", "attr": {"dtype": {"type": "DT_INT32"}, "value": {"tensor": {"dtype": "DT_INT32", "tensorShape": {"dim": [{"size": "2"}]}}}}}, {"name": "__inference_siamese_model_bidirectional_forward_rnn_while_body_1500_frozen_5375/siamese_model/bidirectional/forward_rnn/while/add_1/y", "op": "Const", "attr": {"value": {"tensor": {"dtype": "DT_INT32", "tensorShape": {}}}, "dtype": {"type": "DT_INT32"}}}, {"name": "siamese_model/bidirectional/forward_rnn/while/stacked_rnn_cells/simple_rnn_cell/MatMul/ReadVariableOp", "op": "Identity", "input": ["siamese_model_bidirectional_forward_rnn_while_stacked_rnn_cells_simple_rnn_cell_matmul_readvariableop_resource_0"], "attr": {"T": {"type": "DT_FLOAT"}}}, {"name": "siamese_model/bidirectional/forward_rnn/while/stacked_rnn_cells/simple_rnn_cell/BiasAdd/ReadVariableOp", "op": "Identity", "input": ["siamese_model_bidirectional_forward_rnn_while_stacked_rnn_cells_simple_rnn_cell_biasadd_readvariableop_resource_0"], "attr": {"T": {"type": "DT_FLOAT"}}}, {"name": "siamese_model/bidirectional/forward_rnn/while/stacked_rnn_cells/simple_rnn_cell/MatMul_1/ReadVariableOp", "op": "Identity", "input": ["siamese_model_bidirectional_forward_rnn_while_stacked_rnn_cells_simple_rnn_cell_matmul_1_readvariableop_resource_0"], "attr": {"T": {"type": "DT_FLOAT"}}}, {"name": "siamese_model/bidirectional/forward_rnn/while/add", "op": "AddV2", "input": ["siamese_model_bidirectional_forward_rnn_while_placeholder", "__inference_siamese_model_bidirectional_forward_rnn_while_body_1500_frozen_5375/siamese_model/bidirectional/forward_rnn/while/add/y:output:0"], "attr": {"T": {"type": "DT_INT32"}}}, {"name": "siamese_model/bidirectional/forward_rnn/while/TensorArrayV2Read_1/TensorListGetItem", "op": "TensorListGetItem", "input": ["siamese_model_bidirectional_forward_rnn_while_tensorarrayv2read_1_tensorlistgetitem_siamese_model_bidirectional_forward_rnn_tensorarrayunstack_1_tensorlistfromtensor_0", "siamese_model_bidirectional_forward_rnn_while_placeholder", "__inference_siamese_model_bidirectional_forward_rnn_while_body_1500_frozen_5375/siamese_model/bidirectional/forward_rnn/while/TensorArrayV2Read_1/TensorListGetItem/element_shape:output:0"], "attr": {"element_dtype": {"type": "DT_BOOL"}}}, {"name": "siamese_model/bidirectional/forward_rnn/while/TensorArrayV2Read/TensorListGetItem", "op": "TensorListGetItem", "input": ["siamese_model_bidirectional_forward_rnn_while_tensorarrayv2read_tensorlistgetitem_siamese_model_bidirectional_forward_rnn_tensorarrayunstack_tensorlistfromtensor_0", "siamese_model_bidirectional_forward_rnn_while_placeholder", "__inference_siamese_model_bidirectional_forward_rnn_while_body_1500_frozen_5375/siamese_model/bidirectional/forward_rnn/while/TensorArrayV2Read/TensorListGetItem/element_shape:output:0"], "attr": {"element_dtype": {"type": "DT_FLOAT"}}}, {"name": "siamese_model/bidirectional/forward_rnn/while/add_1", "op": "AddV2", "input": ["siamese_model_bidirectional_forward_rnn_while_siamese_model_bidirectional_forward_rnn_while_loop_counter", "__inference_siamese_model_bidirectional_forward_rnn_while_body_1500_frozen_5375/siamese_model/bidirectional/forward_rnn/while/add_1/y:output:0"], "attr": {"T": {"type": "DT_INT32"}}}, {"name": "siamese_model/bidirectional/forward_rnn/while/stacked_rnn_cells/simple_rnn_cell/MatMul_1", "op": "MatMul", "input": ["siamese_model_bidirectional_forward_rnn_while_placeholder_3", "siamese_model/bidirectional/forward_rnn/while/stacked_rnn_cells/simple_rnn_cell/MatMul_1/ReadVariableOp:output:0"], "attr": {"T": {"type": "DT_FLOAT"}, "transpose_b": {"b": false}, "transpose_a": {"b": false}}}, {"name": "siamese_model/bidirectional/forward_rnn/while/NoOp", "op": "NoOp", "input": ["^siamese_model/bidirectional/forward_rnn/while/stacked_rnn_cells/simple_rnn_cell/BiasAdd/ReadVariableOp", "^siamese_model/bidirectional/forward_rnn/while/stacked_rnn_cells/simple_rnn_cell/MatMul/ReadVariableOp", "^siamese_model/bidirectional/forward_rnn/while/stacked_rnn_cells/simple_rnn_cell/MatMul_1/ReadVariableOp"], "attr": {"_acd_function_control_output": {"b": true}}}, {"name": "siamese_model/bidirectional/forward_rnn/while/stacked_rnn_cells/simple_rnn_cell/MatMul", "op": "MatMul", "input": ["siamese_model/bidirectional/forward_rnn/while/TensorArrayV2Read/TensorListGetItem:item:0", "siamese_model/bidirectional/forward_rnn/while/stacked_rnn_cells/simple_rnn_cell/MatMul/ReadVariableOp:output:0"], "attr": {"T": {"type": "DT_FLOAT"}, "transpose_b": {"b": false}, "transpose_a": {"b": false}}}, {"name": "siamese_model/bidirectional/forward_rnn/while/Identity_1", "op": "Identity", "input": ["siamese_model_bidirectional_forward_rnn_while_siamese_model_bidirectional_forward_rnn_while_maximum_iterations", "^siamese_model/bidirectional/forward_rnn/while/NoOp"], "attr": {"T": {"type": "DT_INT32"}}}, {"name": "siamese_model/bidirectional/forward_rnn/while/Identity_2", "op": "Identity", "input": ["siamese_model/bidirectional/forward_rnn/while/add:z:0", "^siamese_model/bidirectional/forward_rnn/while/NoOp"], "attr": {"T": {"type": "DT_INT32"}}}, {"name": "siamese_model/bidirectional/forward_rnn/while/Identity", "op": "Identity", "input": ["siamese_model/bidirectional/forward_rnn/while/add_1:z:0", "^siamese_model/bidirectional/forward_rnn/while/NoOp"], "attr": {"T": {"type": "DT_INT32"}}}, {"name": "siamese_model/bidirectional/forward_rnn/while/stacked_rnn_cells/simple_rnn_cell/BiasAdd", "op": "BiasAdd", "input": ["siamese_model/bidirectional/forward_rnn/while/stacked_rnn_cells/simple_rnn_cell/MatMul:product:0", "siamese_model/bidirectional/forward_rnn/while/stacked_rnn_cells/simple_rnn_cell/BiasAdd/ReadVariableOp:output:0"], "attr": {"data_format": {"s": "TkhXQw=="}, "T": {"type": "DT_FLOAT"}}}, {"name": "siamese_model/bidirectional/forward_rnn/while/stacked_rnn_cells/simple_rnn_cell/add", "op": "AddV2", "input": ["siamese_model/bidirectional/forward_rnn/while/stacked_rnn_cells/simple_rnn_cell/BiasAdd:output:0", "siamese_model/bidirectional/forward_rnn/while/stacked_rnn_cells/simple_rnn_cell/MatMul_1:product:0"], "attr": {"T": {"type": "DT_FLOAT"}}}, {"name": "siamese_model/bidirectional/forward_rnn/while/stacked_rnn_cells/simple_rnn_cell/Tanh", "op": "Tanh", "input": ["siamese_model/bidirectional/forward_rnn/while/stacked_rnn_cells/simple_rnn_cell/add:z:0"], "attr": {"T": {"type": "DT_FLOAT"}}}, {"name": "siamese_model/bidirectional/forward_rnn/while/SelectV2", "op": "SelectV2", "input": ["siamese_model/bidirectional/forward_rnn/while/TensorArrayV2Read_1/TensorListGetItem:item:0", "siamese_model/bidirectional/forward_rnn/while/stacked_rnn_cells/simple_rnn_cell/Tanh:y:0", "siamese_model_bidirectional_forward_rnn_while_placeholder_2"], "attr": {"T": {"type": "DT_FLOAT"}}}, {"name": "siamese_model/bidirectional/forward_rnn/while/SelectV2_1", "op": "SelectV2", "input": ["siamese_model/bidirectional/forward_rnn/while/TensorArrayV2Read_1/TensorListGetItem:item:0", "siamese_model/bidirectional/forward_rnn/while/stacked_rnn_cells/simple_rnn_cell/Tanh:y:0", "siamese_model_bidirectional_forward_rnn_while_placeholder_3"], "attr": {"T": {"type": "DT_FLOAT"}}}, {"name": "siamese_model/bidirectional/forward_rnn/while/TensorArrayV2Write/TensorListSetItem", "op": "TensorListSetItem", "input": ["siamese_model_bidirectional_forward_rnn_while_placeholder_1", "siamese_model_bidirectional_forward_rnn_while_placeholder", "siamese_model/bidirectional/forward_rnn/while/SelectV2:output:0"], "attr": {"element_dtype": {"type": "DT_FLOAT"}}, "experimentalType": {"typeId": "TFT_PRODUCT", "args": [{"typeId": "TFT_ARRAY", "args": [{"typeId": "TFT_TENSOR", "args": [{"typeId": "TFT_FLOAT"}]}]}]}}, {"name": "siamese_model/bidirectional/forward_rnn/while/Identity_4", "op": "Identity", "input": ["siamese_model/bidirectional/forward_rnn/while/SelectV2:output:0", "^siamese_model/bidirectional/forward_rnn/while/NoOp"], "attr": {"T": {"type": "DT_FLOAT"}}}, {"name": "siamese_model/bidirectional/forward_rnn/while/Identity_5", "op": "Identity", "input": ["siamese_model/bidirectional/forward_rnn/while/SelectV2_1:output:0", "^siamese_model/bidirectional/forward_rnn/while/NoOp"], "attr": {"T": {"type": "DT_FLOAT"}}}, {"name": "siamese_model/bidirectional/forward_rnn/while/Identity_3", "op": "Identity", "input": ["siamese_model/bidirectional/forward_rnn/while/TensorArrayV2Write/TensorListSetItem:output_handle:0", "^siamese_model/bidirectional/forward_rnn/while/NoOp"], "attr": {"T": {"type": "DT_VARIANT"}}}], "ret": {"siamese_model_bidirectional_forward_rnn_while_identity_1": "siamese_model/bidirectional/forward_rnn/while/Identity_1:output:0", "siamese_model_bidirectional_forward_rnn_while_tensorarrayv2read_1_tensorlistgetitem_siamese_model_bidirectional_forward_rnn_tensorarrayunstack_1_tensorlistfromtensor": "siamese_model_bidirectional_forward_rnn_while_tensorarrayv2read_1_tensorlistgetitem_siamese_model_bidirectional_forward_rnn_tensorarrayunstack_1_tensorlistfromtensor_0", "siamese_model_bidirectional_forward_rnn_while_stacked_rnn_cells_simple_rnn_cell_matmul_1_readvariableop_resource": "siamese_model_bidirectional_forward_rnn_while_stacked_rnn_cells_simple_rnn_cell_matmul_1_readvariableop_resource_0", "siamese_model_bidirectional_forward_rnn_while_identity_3": "siamese_model/bidirectional/forward_rnn/while/Identity_3:output:0", "siamese_model_bidirectional_forward_rnn_while_identity": "siamese_model/bidirectional/forward_rnn/while/Identity:output:0", "siamese_model_bidirectional_forward_rnn_while_siamese_model_bidirectional_forward_rnn_strided_slice_1": "siamese_model_bidirectional_forward_rnn_while_siamese_model_bidirectional_forward_rnn_strided_slice_1_0", "siamese_model_bidirectional_forward_rnn_while_stacked_rnn_cells_simple_rnn_cell_matmul_readvariableop_resource": "siamese_model_bidirectional_forward_rnn_while_stacked_rnn_cells_simple_rnn_cell_matmul_readvariableop_resource_0", "siamese_model_bidirectional_forward_rnn_while_stacked_rnn_cells_simple_rnn_cell_biasadd_readvariableop_resource": "siamese_model_bidirectional_forward_rnn_while_stacked_rnn_cells_simple_rnn_cell_biasadd_readvariableop_resource_0", "siamese_model_bidirectional_forward_rnn_while_identity_4": "siamese_model/bidirectional/forward_rnn/while/Identity_4:output:0", "siamese_model_bidirectional_forward_rnn_while_identity_5": "siamese_model/bidirectional/forward_rnn/while/Identity_5:output:0", "siamese_model_bidirectional_forward_rnn_while_tensorarrayv2read_tensorlistgetitem_siamese_model_bidirectional_forward_rnn_tensorarrayunstack_tensorlistfromtensor": "siamese_model_bidirectional_forward_rnn_while_tensorarrayv2read_tensorlistgetitem_siamese_model_bidirectional_forward_rnn_tensorarrayunstack_tensorlistfromtensor_0", "siamese_model_bidirectional_forward_rnn_while_identity_2": "siamese_model/bidirectional/forward_rnn/while/Identity_2:output:0"}, "attr": {"_construction_context": {"s": "a0VhZ2VyUnVudGltZQ=="}}, "controlRet": {"siamese_model/bidirectional/forward_rnn/while/stacked_rnn_cells/simple_rnn_cell/MatMul_1/ReadVariableOp": "siamese_model/bidirectional/forward_rnn/while/stacked_rnn_cells/simple_rnn_cell/MatMul_1/ReadVariableOp", "siamese_model/bidirectional/forward_rnn/while/stacked_rnn_cells/simple_rnn_cell/MatMul/ReadVariableOp": "siamese_model/bidirectional/forward_rnn/while/stacked_rnn_cells/simple_rnn_cell/MatMul/ReadVariableOp", "siamese_model/bidirectional/forward_rnn/while/stacked_rnn_cells/simple_rnn_cell/BiasAdd/ReadVariableOp": "siamese_model/bidirectional/forward_rnn/while/stacked_rnn_cells/simple_rnn_cell/BiasAdd/ReadVariableOp"}, "argAttr": {"3": {"attr": {"_output_shapes": {"list": {"shape": [{}]}}}}, "4": {"attr": {"_output_shapes": {"list": {"shape": [{"dim": [{"size": "-1"}, {"size": "50"}]}]}}}}, "6": {"attr": {"_output_shapes": {"list": {"shape": [{}]}}}}, "5": {"attr": {"_output_shapes": {"list": {"shape": [{"dim": [{"size": "-1"}, {"size": "50"}]}]}}}}, "0": {"attr": {"_output_shapes": {"list": {"shape": [{}]}}}}, "7": {"attr": {"_output_shapes": {"list": {"shape": [{}]}}}}, "2": {"attr": {"_output_shapes": {"list": {"shape": [{}]}}}}, "8": {"attr": {"_output_shapes": {"list": {"shape": [{}]}}}}, "1": {"attr": {"_output_shapes": {"list": {"shape": [{}]}}}}}}, {"signature": {"name": "__inference_siamese_model_bidirectional_backward_rnn_while_body_1632_frozen_5373", "inputArg": [{"name": "siamese_model_bidirectional_backward_rnn_while_siamese_model_bidirectional_backward_rnn_while_loop_counter", "type": "DT_INT32"}, {"name": "siamese_model_bidirectional_backward_rnn_while_siamese_model_bidirectional_backward_rnn_while_maximum_iterations", "type": "DT_INT32"}, {"name": "siamese_model_bidirectional_backward_rnn_while_placeholder", "type": "DT_INT32"}, {"name": "siamese_model_bidirectional_backward_rnn_while_placeholder_1", "type": "DT_VARIANT"}, {"name": "siamese_model_bidirectional_backward_rnn_while_placeholder_2", "type": "DT_FLOAT"}, {"name": "siamese_model_bidirectional_backward_rnn_while_placeholder_3", "type": "DT_FLOAT"}, {"name": "siamese_model_bidirectional_backward_rnn_while_siamese_model_bidirectional_backward_rnn_strided_slice_1_0", "type": "DT_INT32"}, {"name": "siamese_model_bidirectional_backward_rnn_while_tensorarrayv2read_tensorlistgetitem_siamese_model_bidirectional_backward_rnn_tensorarrayunstack_tensorlistfromtensor_0", "type": "DT_VARIANT"}, {"name": "siamese_model_bidirectional_backward_rnn_while_tensorarrayv2read_1_tensorlistgetitem_siamese_model_bidirectional_backward_rnn_tensorarrayunstack_1_tensorlistfromtensor_0", "type": "DT_VARIANT"}, {"name": "siamese_model_bidirectional_backward_rnn_while_stacked_rnn_cells_simple_rnn_cell_matmul_readvariableop_resource_0", "type": "DT_FLOAT"}, {"name": "siamese_model_bidirectional_backward_rnn_while_stacked_rnn_cells_simple_rnn_cell_biasadd_readvariableop_resource_0", "type": "DT_FLOAT"}, {"name": "siamese_model_bidirectional_backward_rnn_while_stacked_rnn_cells_simple_rnn_cell_matmul_1_readvariableop_resource_0", "type": "DT_FLOAT"}], "outputArg": [{"name": "siamese_model_bidirectional_backward_rnn_while_identity", "type": "DT_INT32"}, {"name": "siamese_model_bidirectional_backward_rnn_while_identity_1", "type": "DT_INT32"}, {"name": "siamese_model_bidirectional_backward_rnn_while_identity_2", "type": "DT_INT32"}, {"name": "siamese_model_bidirectional_backward_rnn_while_identity_3", "type": "DT_VARIANT"}, {"name": "siamese_model_bidirectional_backward_rnn_while_identity_4", "type": "DT_FLOAT"}, {"name": "siamese_model_bidirectional_backward_rnn_while_identity_5", "type": "DT_FLOAT"}, {"name": "siamese_model_bidirectional_backward_rnn_while_siamese_model_bidirectional_backward_rnn_strided_slice_1", "type": "DT_INT32"}, {"name": "siamese_model_bidirectional_backward_rnn_while_tensorarrayv2read_tensorlistgetitem_siamese_model_bidirectional_backward_rnn_tensorarrayunstack_tensorlistfromtensor", "type": "DT_VARIANT"}, {"name": "siamese_model_bidirectional_backward_rnn_while_tensorarrayv2read_1_tensorlistgetitem_siamese_model_bidirectional_backward_rnn_tensorarrayunstack_1_tensorlistfromtensor", "type": "DT_VARIANT"}, {"name": "siamese_model_bidirectional_backward_rnn_while_stacked_rnn_cells_simple_rnn_cell_matmul_readvariableop_resource", "type": "DT_FLOAT"}, {"name": "siamese_model_bidirectional_backward_rnn_while_stacked_rnn_cells_simple_rnn_cell_biasadd_readvariableop_resource", "type": "DT_FLOAT"}, {"name": "siamese_model_bidirectional_backward_rnn_while_stacked_rnn_cells_simple_rnn_cell_matmul_1_readvariableop_resource", "type": "DT_FLOAT"}], "isStateful": true, "controlOutput": ["siamese_model/bidirectional/backward_rnn/while/stacked_rnn_cells/simple_rnn_cell/BiasAdd/ReadVariableOp", "siamese_model/bidirectional/backward_rnn/while/stacked_rnn_cells/simple_rnn_cell/MatMul/ReadVariableOp", "siamese_model/bidirectional/backward_rnn/while/stacked_rnn_cells/simple_rnn_cell/MatMul_1/ReadVariableOp"]}, "nodeDef": [{"name": "__inference_siamese_model_bidirectional_backward_rnn_while_body_1632_frozen_5373/siamese_model/bidirectional/backward_rnn/while/add/y", "op": "Const", "attr": {"value": {"tensor": {"dtype": "DT_INT32", "tensorShape": {}}}, "dtype": {"type": "DT_INT32"}}}, {"name": "__inference_siamese_model_bidirectional_backward_rnn_while_body_1632_frozen_5373/siamese_model/bidirectional/backward_rnn/while/TensorArrayV2Read_1/TensorListGetItem/element_shape", "op": "Const", "attr": {"value": {"tensor": {"dtype": "DT_INT32", "tensorShape": {"dim": [{"size": "2"}]}}}, "dtype": {"type": "DT_INT32"}}}, {"name": "__inference_siamese_model_bidirectional_backward_rnn_while_body_1632_frozen_5373/siamese_model/bidirectional/backward_rnn/while/TensorArrayV2Read/TensorListGetItem/element_shape", "op": "Const", "attr": {"value": {"tensor": {"dtype": "DT_INT32", "tensorShape": {"dim": [{"size": "2"}]}}}, "dtype": {"type": "DT_INT32"}}}, {"name": "__inference_siamese_model_bidirectional_backward_rnn_while_body_1632_frozen_5373/siamese_model/bidirectional/backward_rnn/while/add_1/y", "op": "Const", "attr": {"dtype": {"type": "DT_INT32"}, "value": {"tensor": {"dtype": "DT_INT32", "tensorShape": {}}}}}, {"name": "siamese_model/bidirectional/backward_rnn/while/stacked_rnn_cells/simple_rnn_cell/MatMul/ReadVariableOp", "op": "Identity", "input": ["siamese_model_bidirectional_backward_rnn_while_stacked_rnn_cells_simple_rnn_cell_matmul_readvariableop_resource_0"], "attr": {"T": {"type": "DT_FLOAT"}}}, {"name": "siamese_model/bidirectional/backward_rnn/while/stacked_rnn_cells/simple_rnn_cell/BiasAdd/ReadVariableOp", "op": "Identity", "input": ["siamese_model_bidirectional_backward_rnn_while_stacked_rnn_cells_simple_rnn_cell_biasadd_readvariableop_resource_0"], "attr": {"T": {"type": "DT_FLOAT"}}}, {"name": "siamese_model/bidirectional/backward_rnn/while/stacked_rnn_cells/simple_rnn_cell/MatMul_1/ReadVariableOp", "op": "Identity", "input": ["siamese_model_bidirectional_backward_rnn_while_stacked_rnn_cells_simple_rnn_cell_matmul_1_readvariableop_resource_0"], "attr": {"T": {"type": "DT_FLOAT"}}}, {"name": "siamese_model/bidirectional/backward_rnn/while/add", "op": "AddV2", "input": ["siamese_model_bidirectional_backward_rnn_while_placeholder", "__inference_siamese_model_bidirectional_backward_rnn_while_body_1632_frozen_5373/siamese_model/bidirectional/backward_rnn/while/add/y:output:0"], "attr": {"T": {"type": "DT_INT32"}}}, {"name": "siamese_model/bidirectional/backward_rnn/while/TensorArrayV2Read_1/TensorListGetItem", "op": "TensorListGetItem", "input": ["siamese_model_bidirectional_backward_rnn_while_tensorarrayv2read_1_tensorlistgetitem_siamese_model_bidirectional_backward_rnn_tensorarrayunstack_1_tensorlistfromtensor_0", "siamese_model_bidirectional_backward_rnn_while_placeholder", "__inference_siamese_model_bidirectional_backward_rnn_while_body_1632_frozen_5373/siamese_model/bidirectional/backward_rnn/while/TensorArrayV2Read_1/TensorListGetItem/element_shape:output:0"], "attr": {"element_dtype": {"type": "DT_BOOL"}}}, {"name": "siamese_model/bidirectional/backward_rnn/while/TensorArrayV2Read/TensorListGetItem", "op": "TensorListGetItem", "input": ["siamese_model_bidirectional_backward_rnn_while_tensorarrayv2read_tensorlistgetitem_siamese_model_bidirectional_backward_rnn_tensorarrayunstack_tensorlistfromtensor_0", "siamese_model_bidirectional_backward_rnn_while_placeholder", "__inference_siamese_model_bidirectional_backward_rnn_while_body_1632_frozen_5373/siamese_model/bidirectional/backward_rnn/while/TensorArrayV2Read/TensorListGetItem/element_shape:output:0"], "attr": {"element_dtype": {"type": "DT_FLOAT"}}}, {"name": "siamese_model/bidirectional/backward_rnn/while/add_1", "op": "AddV2", "input": ["siamese_model_bidirectional_backward_rnn_while_siamese_model_bidirectional_backward_rnn_while_loop_counter", "__inference_siamese_model_bidirectional_backward_rnn_while_body_1632_frozen_5373/siamese_model/bidirectional/backward_rnn/while/add_1/y:output:0"], "attr": {"T": {"type": "DT_INT32"}}}, {"name": "siamese_model/bidirectional/backward_rnn/while/stacked_rnn_cells/simple_rnn_cell/MatMul_1", "op": "MatMul", "input": ["siamese_model_bidirectional_backward_rnn_while_placeholder_3", "siamese_model/bidirectional/backward_rnn/while/stacked_rnn_cells/simple_rnn_cell/MatMul_1/ReadVariableOp:output:0"], "attr": {"transpose_a": {"b": false}, "T": {"type": "DT_FLOAT"}, "transpose_b": {"b": false}}}, {"name": "siamese_model/bidirectional/backward_rnn/while/NoOp", "op": "NoOp", "input": ["^siamese_model/bidirectional/backward_rnn/while/stacked_rnn_cells/simple_rnn_cell/BiasAdd/ReadVariableOp", "^siamese_model/bidirectional/backward_rnn/while/stacked_rnn_cells/simple_rnn_cell/MatMul/ReadVariableOp", "^siamese_model/bidirectional/backward_rnn/while/stacked_rnn_cells/simple_rnn_cell/MatMul_1/ReadVariableOp"], "attr": {"_acd_function_control_output": {"b": true}}}, {"name": "siamese_model/bidirectional/backward_rnn/while/stacked_rnn_cells/simple_rnn_cell/MatMul", "op": "MatMul", "input": ["siamese_model/bidirectional/backward_rnn/while/TensorArrayV2Read/TensorListGetItem:item:0", "siamese_model/bidirectional/backward_rnn/while/stacked_rnn_cells/simple_rnn_cell/MatMul/ReadVariableOp:output:0"], "attr": {"T": {"type": "DT_FLOAT"}, "transpose_b": {"b": false}, "transpose_a": {"b": false}}}, {"name": "siamese_model/bidirectional/backward_rnn/while/Identity_1", "op": "Identity", "input": ["siamese_model_bidirectional_backward_rnn_while_siamese_model_bidirectional_backward_rnn_while_maximum_iterations", "^siamese_model/bidirectional/backward_rnn/while/NoOp"], "attr": {"T": {"type": "DT_INT32"}}}, {"name": "siamese_model/bidirectional/backward_rnn/while/Identity_2", "op": "Identity", "input": ["siamese_model/bidirectional/backward_rnn/while/add:z:0", "^siamese_model/bidirectional/backward_rnn/while/NoOp"], "attr": {"T": {"type": "DT_INT32"}}}, {"name": "siamese_model/bidirectional/backward_rnn/while/Identity", "op": "Identity", "input": ["siamese_model/bidirectional/backward_rnn/while/add_1:z:0", "^siamese_model/bidirectional/backward_rnn/while/NoOp"], "attr": {"T": {"type": "DT_INT32"}}}, {"name": "siamese_model/bidirectional/backward_rnn/while/stacked_rnn_cells/simple_rnn_cell/BiasAdd", "op": "BiasAdd", "input": ["siamese_model/bidirectional/backward_rnn/while/stacked_rnn_cells/simple_rnn_cell/MatMul:product:0", "siamese_model/bidirectional/backward_rnn/while/stacked_rnn_cells/simple_rnn_cell/BiasAdd/ReadVariableOp:output:0"], "attr": {"T": {"type": "DT_FLOAT"}, "data_format": {"s": "TkhXQw=="}}}, {"name": "siamese_model/bidirectional/backward_rnn/while/stacked_rnn_cells/simple_rnn_cell/add", "op": "AddV2", "input": ["siamese_model/bidirectional/backward_rnn/while/stacked_rnn_cells/simple_rnn_cell/BiasAdd:output:0", "siamese_model/bidirectional/backward_rnn/while/stacked_rnn_cells/simple_rnn_cell/MatMul_1:product:0"], "attr": {"T": {"type": "DT_FLOAT"}}}, {"name": "siamese_model/bidirectional/backward_rnn/while/stacked_rnn_cells/simple_rnn_cell/Tanh", "op": "Tanh", "input": ["siamese_model/bidirectional/backward_rnn/while/stacked_rnn_cells/simple_rnn_cell/add:z:0"], "attr": {"T": {"type": "DT_FLOAT"}}}, {"name": "siamese_model/bidirectional/backward_rnn/while/SelectV2", "op": "SelectV2", "input": ["siamese_model/bidirectional/backward_rnn/while/TensorArrayV2Read_1/TensorListGetItem:item:0", "siamese_model/bidirectional/backward_rnn/while/stacked_rnn_cells/simple_rnn_cell/Tanh:y:0", "siamese_model_bidirectional_backward_rnn_while_placeholder_2"], "attr": {"T": {"type": "DT_FLOAT"}}}, {"name": "siamese_model/bidirectional/backward_rnn/while/SelectV2_1", "op": "SelectV2", "input": ["siamese_model/bidirectional/backward_rnn/while/TensorArrayV2Read_1/TensorListGetItem:item:0", "siamese_model/bidirectional/backward_rnn/while/stacked_rnn_cells/simple_rnn_cell/Tanh:y:0", "siamese_model_bidirectional_backward_rnn_while_placeholder_3"], "attr": {"T": {"type": "DT_FLOAT"}}}, {"name": "siamese_model/bidirectional/backward_rnn/while/TensorArrayV2Write/TensorListSetItem", "op": "TensorListSetItem", "input": ["siamese_model_bidirectional_backward_rnn_while_placeholder_1", "siamese_model_bidirectional_backward_rnn_while_placeholder", "siamese_model/bidirectional/backward_rnn/while/SelectV2:output:0"], "attr": {"element_dtype": {"type": "DT_FLOAT"}}, "experimentalType": {"typeId": "TFT_PRODUCT", "args": [{"typeId": "TFT_ARRAY", "args": [{"typeId": "TFT_TENSOR", "args": [{"typeId": "TFT_FLOAT"}]}]}]}}, {"name": "siamese_model/bidirectional/backward_rnn/while/Identity_4", "op": "Identity", "input": ["siamese_model/bidirectional/backward_rnn/while/SelectV2:output:0", "^siamese_model/bidirectional/backward_rnn/while/NoOp"], "attr": {"T": {"type": "DT_FLOAT"}}}, {"name": "siamese_model/bidirectional/backward_rnn/while/Identity_5", "op": "Identity", "input": ["siamese_model/bidirectional/backward_rnn/while/SelectV2_1:output:0", "^siamese_model/bidirectional/backward_rnn/while/NoOp"], "attr": {"T": {"type": "DT_FLOAT"}}}, {"name": "siamese_model/bidirectional/backward_rnn/while/Identity_3", "op": "Identity", "input": ["siamese_model/bidirectional/backward_rnn/while/TensorArrayV2Write/TensorListSetItem:output_handle:0", "^siamese_model/bidirectional/backward_rnn/while/NoOp"], "attr": {"T": {"type": "DT_VARIANT"}}}], "ret": {"siamese_model_bidirectional_backward_rnn_while_identity_2": "siamese_model/bidirectional/backward_rnn/while/Identity_2:output:0", "siamese_model_bidirectional_backward_rnn_while_identity_5": "siamese_model/bidirectional/backward_rnn/while/Identity_5:output:0", "siamese_model_bidirectional_backward_rnn_while_identity_1": "siamese_model/bidirectional/backward_rnn/while/Identity_1:output:0", "siamese_model_bidirectional_backward_rnn_while_identity": "siamese_model/bidirectional/backward_rnn/while/Identity:output:0", "siamese_model_bidirectional_backward_rnn_while_tensorarrayv2read_1_tensorlistgetitem_siamese_model_bidirectional_backward_rnn_tensorarrayunstack_1_tensorlistfromtensor": "siamese_model_bidirectional_backward_rnn_while_tensorarrayv2read_1_tensorlistgetitem_siamese_model_bidirectional_backward_rnn_tensorarrayunstack_1_tensorlistfromtensor_0", "siamese_model_bidirectional_backward_rnn_while_stacked_rnn_cells_simple_rnn_cell_matmul_readvariableop_resource": "siamese_model_bidirectional_backward_rnn_while_stacked_rnn_cells_simple_rnn_cell_matmul_readvariableop_resource_0", "siamese_model_bidirectional_backward_rnn_while_stacked_rnn_cells_simple_rnn_cell_biasadd_readvariableop_resource": "siamese_model_bidirectional_backward_rnn_while_stacked_rnn_cells_simple_rnn_cell_biasadd_readvariableop_resource_0", "siamese_model_bidirectional_backward_rnn_while_identity_3": "siamese_model/bidirectional/backward_rnn/while/Identity_3:output:0", "siamese_model_bidirectional_backward_rnn_while_siamese_model_bidirectional_backward_rnn_strided_slice_1": "siamese_model_bidirectional_backward_rnn_while_siamese_model_bidirectional_backward_rnn_strided_slice_1_0", "siamese_model_bidirectional_backward_rnn_while_identity_4": "siamese_model/bidirectional/backward_rnn/while/Identity_4:output:0", "siamese_model_bidirectional_backward_rnn_while_tensorarrayv2read_tensorlistgetitem_siamese_model_bidirectional_backward_rnn_tensorarrayunstack_tensorlistfromtensor": "siamese_model_bidirectional_backward_rnn_while_tensorarrayv2read_tensorlistgetitem_siamese_model_bidirectional_backward_rnn_tensorarrayunstack_tensorlistfromtensor_0", "siamese_model_bidirectional_backward_rnn_while_stacked_rnn_cells_simple_rnn_cell_matmul_1_readvariableop_resource": "siamese_model_bidirectional_backward_rnn_while_stacked_rnn_cells_simple_rnn_cell_matmul_1_readvariableop_resource_0"}, "attr": {"_construction_context": {"s": "a0VhZ2VyUnVudGltZQ=="}}, "controlRet": {"siamese_model/bidirectional/backward_rnn/while/stacked_rnn_cells/simple_rnn_cell/MatMul_1/ReadVariableOp": "siamese_model/bidirectional/backward_rnn/while/stacked_rnn_cells/simple_rnn_cell/MatMul_1/ReadVariableOp", "siamese_model/bidirectional/backward_rnn/while/stacked_rnn_cells/simple_rnn_cell/MatMul/ReadVariableOp": "siamese_model/bidirectional/backward_rnn/while/stacked_rnn_cells/simple_rnn_cell/MatMul/ReadVariableOp", "siamese_model/bidirectional/backward_rnn/while/stacked_rnn_cells/simple_rnn_cell/BiasAdd/ReadVariableOp": "siamese_model/bidirectional/backward_rnn/while/stacked_rnn_cells/simple_rnn_cell/BiasAdd/ReadVariableOp"}, "argAttr": {"2": {"attr": {"_output_shapes": {"list": {"shape": [{}]}}}}, "7": {"attr": {"_output_shapes": {"list": {"shape": [{}]}}}}, "8": {"attr": {"_output_shapes": {"list": {"shape": [{}]}}}}, "1": {"attr": {"_output_shapes": {"list": {"shape": [{}]}}}}, "3": {"attr": {"_output_shapes": {"list": {"shape": [{}]}}}}, "4": {"attr": {"_output_shapes": {"list": {"shape": [{"dim": [{"size": "-1"}, {"size": "50"}]}]}}}}, "6": {"attr": {"_output_shapes": {"list": {"shape": [{}]}}}}, "5": {"attr": {"_output_shapes": {"list": {"shape": [{"dim": [{"size": "-1"}, {"size": "50"}]}]}}}}, "0": {"attr": {"_output_shapes": {"list": {"shape": [{}]}}}}}}]}, "versions": {"producer": 898, "minConsumer": 12}}, "weightsManifest": [{"paths": ["group1-shard1of1.bin"], "weights": [{"name": "StatefulPartitionedCall/siamese_model/lambda/Mul_1/x", "shape": [], "dtype": "float32"}, {"name": "StatefulPartitionedCall/siamese_model/bidirectional/forward_rnn/while/loop_counter", "shape": [], "dtype": "int32"}, {"name": "StatefulPartitionedCall/siamese_model/bidirectional/forward_rnn/while/maximum_iterations", "shape": [], "dtype": "int32"}, {"name": "StatefulPartitionedCall/siamese_model/bidirectional/forward_rnn/time", "shape": [], "dtype": "int32"}, {"name": "StatefulPartitionedCall/siamese_model/bidirectional/forward_rnn/TensorArrayV2_1/element_shape", "shape": [2], "dtype": "int32"}, {"name": "StatefulPartitionedCall/siamese_model/bidirectional/forward_rnn/strided_slice_2/stack", "shape": [1], "dtype": "int32"}, {"name": "StatefulPartitionedCall/siamese_model/bidirectional/forward_rnn/strided_slice_2/stack_1", "shape": [1], "dtype": "int32"}, {"name": "StatefulPartitionedCall/siamese_model/bidirectional/forward_rnn/strided_slice_2/stack_2", "shape": [1], "dtype": "int32"}, {"name": "StatefulPartitionedCall/siamese_model/bidirectional/forward_rnn/stacked_rnn_cells/simple_rnn_cell/MatMul/ReadVariableOp", "shape": [39, 50], "dtype": "float32"}, {"name": "StatefulPartitionedCall/siamese_model/bidirectional/forward_rnn/stacked_rnn_cells/simple_rnn_cell/BiasAdd/ReadVariableOp", "shape": [50], "dtype": "float32"}, {"name": "StatefulPartitionedCall/siamese_model/bidirectional/forward_rnn/stacked_rnn_cells/simple_rnn_cell/MatMul_1/ReadVariableOp", "shape": [50, 50], "dtype": "float32"}, {"name": "StatefulPartitionedCall/siamese_model/bidirectional/forward_rnn/strided_slice/stack", "shape": [1], "dtype": "int32"}, {"name": "StatefulPartitionedCall/siamese_model/bidirectional/forward_rnn/strided_slice/stack_1", "shape": [1], "dtype": "int32"}, {"name": "StatefulPartitionedCall/siamese_model/bidirectional/forward_rnn/strided_slice/stack_2", "shape": [1], "dtype": "int32"}, {"name": "StatefulPartitionedCall/siamese_model/bidirectional/forward_rnn/zeros/packed/1", "shape": [], "dtype": "int32"}, {"name": "StatefulPartitionedCall/siamese_model/bidirectional/forward_rnn/zeros/Const", "shape": [], "dtype": "float32"}, {"name": "StatefulPartitionedCall/siamese_model/bidirectional/forward_rnn/strided_slice_1/stack", "shape": [1], "dtype": "int32"}, {"name": "StatefulPartitionedCall/siamese_model/bidirectional/forward_rnn/strided_slice_1/stack_1", "shape": [1], "dtype": "int32"}, {"name": "StatefulPartitionedCall/siamese_model/bidirectional/forward_rnn/strided_slice_1/stack_2", "shape": [1], "dtype": "int32"}, {"name": "StatefulPartitionedCall/siamese_model/bidirectional/forward_rnn/transpose/perm", "shape": [3], "dtype": "int32"}, {"name": "StatefulPartitionedCall/siamese_model/bidirectional/forward_rnn/TensorArrayUnstack/TensorListFromTensor/element_shape", "shape": [2], "dtype": "int32"}, {"name": "StatefulPartitionedCall/siamese_model/bidirectional/forward_rnn/ExpandDims/dim", "shape": [], "dtype": "int32"}, {"name": "StatefulPartitionedCall/siamese_model/bidirectional/forward_rnn/transpose_1/perm", "shape": [3], "dtype": "int32"}, {"name": "StatefulPartitionedCall/siamese_model/bidirectional/forward_rnn/TensorArrayUnstack_1/TensorListFromTensor/element_shape", "shape": [2], "dtype": "int32"}, {"name": "StatefulPartitionedCall/siamese_model/bidirectional/forward_rnn/TensorArrayV2Stack/TensorListStack/element_shape", "shape": [2], "dtype": "int32"}, {"name": "StatefulPartitionedCall/siamese_model/bidirectional/forward_rnn/strided_slice_3/stack", "shape": [1], "dtype": "int32"}, {"name": "StatefulPartitionedCall/siamese_model/bidirectional/forward_rnn/strided_slice_3/stack_1", "shape": [1], "dtype": "int32"}, {"name": "StatefulPartitionedCall/siamese_model/bidirectional/forward_rnn/strided_slice_3/stack_2", "shape": [1], "dtype": "int32"}, {"name": "StatefulPartitionedCall/siamese_model/bidirectional/backward_rnn/while/loop_counter", "shape": [], "dtype": "int32"}, {"name": "StatefulPartitionedCall/siamese_model/bidirectional/backward_rnn/while/maximum_iterations", "shape": [], "dtype": "int32"}, {"name": "StatefulPartitionedCall/siamese_model/bidirectional/backward_rnn/time", "shape": [], "dtype": "int32"}, {"name": "StatefulPartitionedCall/siamese_model/bidirectional/backward_rnn/TensorArrayV2_1/element_shape", "shape": [2], "dtype": "int32"}, {"name": "StatefulPartitionedCall/siamese_model/bidirectional/backward_rnn/strided_slice_2/stack", "shape": [1], "dtype": "int32"}, {"name": "StatefulPartitionedCall/siamese_model/bidirectional/backward_rnn/strided_slice_2/stack_1", "shape": [1], "dtype": "int32"}, {"name": "StatefulPartitionedCall/siamese_model/bidirectional/backward_rnn/strided_slice_2/stack_2", "shape": [1], "dtype": "int32"}, {"name": "StatefulPartitionedCall/siamese_model/bidirectional/backward_rnn/stacked_rnn_cells/simple_rnn_cell/MatMul/ReadVariableOp", "shape": [39, 50], "dtype": "float32"}, {"name": "StatefulPartitionedCall/siamese_model/bidirectional/backward_rnn/stacked_rnn_cells/simple_rnn_cell/BiasAdd/ReadVariableOp", "shape": [50], "dtype": "float32"}, {"name": "StatefulPartitionedCall/siamese_model/bidirectional/backward_rnn/stacked_rnn_cells/simple_rnn_cell/MatMul_1/ReadVariableOp", "shape": [50, 50], "dtype": "float32"}, {"name": "StatefulPartitionedCall/siamese_model/bidirectional/backward_rnn/strided_slice/stack", "shape": [1], "dtype": "int32"}, {"name": "StatefulPartitionedCall/siamese_model/bidirectional/backward_rnn/strided_slice/stack_1", "shape": [1], "dtype": "int32"}, {"name": "StatefulPartitionedCall/siamese_model/bidirectional/backward_rnn/strided_slice/stack_2", "shape": [1], "dtype": "int32"}, {"name": "StatefulPartitionedCall/siamese_model/bidirectional/backward_rnn/zeros/packed/1", "shape": [], "dtype": "int32"}, {"name": "StatefulPartitionedCall/siamese_model/bidirectional/backward_rnn/zeros/Const", "shape": [], "dtype": "float32"}, {"name": "StatefulPartitionedCall/siamese_model/bidirectional/backward_rnn/strided_slice_1/stack", "shape": [1], "dtype": "int32"}, {"name": "StatefulPartitionedCall/siamese_model/bidirectional/backward_rnn/strided_slice_1/stack_1", "shape": [1], "dtype": "int32"}, {"name": "StatefulPartitionedCall/siamese_model/bidirectional/backward_rnn/strided_slice_1/stack_2", "shape": [1], "dtype": "int32"}, {"name": "StatefulPartitionedCall/siamese_model/bidirectional/backward_rnn/transpose/perm", "shape": [3], "dtype": "int32"}, {"name": "StatefulPartitionedCall/siamese_model/bidirectional/backward_rnn/ReverseV2/axis", "shape": [1], "dtype": "int32"}, {"name": "StatefulPartitionedCall/siamese_model/bidirectional/backward_rnn/TensorArrayUnstack/TensorListFromTensor/element_shape", "shape": [2], "dtype": "int32"}, {"name": "StatefulPartitionedCall/siamese_model/masking/NotEqual/y", "shape": [], "dtype": "float32"}, {"name": "StatefulPartitionedCall/siamese_model/masking/Any/reduction_indices", "shape": [], "dtype": "int32"}, {"name": "StatefulPartitionedCall/siamese_model/bidirectional/backward_rnn/ExpandDims/dim", "shape": [], "dtype": "int32"}, {"name": "StatefulPartitionedCall/siamese_model/bidirectional/backward_rnn/transpose_1/perm", "shape": [3], "dtype": "int32"}, {"name": "StatefulPartitionedCall/siamese_model/bidirectional/backward_rnn/ReverseV2_1/axis", "shape": [1], "dtype": "int32"}, {"name": "StatefulPartitionedCall/siamese_model/bidirectional/backward_rnn/TensorArrayUnstack_1/TensorListFromTensor/element_shape", "shape": [2], "dtype": "int32"}, {"name": "StatefulPartitionedCall/siamese_model/bidirectional/backward_rnn/TensorArrayV2Stack/TensorListStack/element_shape", "shape": [2], "dtype": "int32"}, {"name": "StatefulPartitionedCall/siamese_model/bidirectional/backward_rnn/strided_slice_3/stack", "shape": [1], "dtype": "int32"}, {"name": "StatefulPartitionedCall/siamese_model/bidirectional/backward_rnn/strided_slice_3/stack_1", "shape": [1], "dtype": "int32"}, {"name": "StatefulPartitionedCall/siamese_model/bidirectional/backward_rnn/strided_slice_3/stack_2", "shape": [1], "dtype": "int32"}, {"name": "StatefulPartitionedCall/siamese_model/bidirectional/concat/axis", "shape": [], "dtype": "int32"}, {"name": "StatefulPartitionedCall/siamese_model/batch_normalization/batchnorm/mul", "shape": [100], "dtype": "float32"}, {"name": "StatefulPartitionedCall/siamese_model/batch_normalization/batchnorm/sub", "shape": [100], "dtype": "float32"}, {"name": "StatefulPartitionedCall/siamese_model/dense/MatMul/ReadVariableOp", "shape": [100, 50], "dtype": "float32"}, {"name": "StatefulPartitionedCall/siamese_model/dense/BiasAdd/ReadVariableOp", "shape": [50], "dtype": "float32"}, {"name": "StatefulPartitionedCall/siamese_model/lambda/l2_normalize/Sum/reduction_indices", "shape": [], "dtype": "int32"}, {"name": "StatefulPartitionedCall/siamese_model/lambda/l2_normalize/Maximum/y", "shape": [], "dtype": "float32"}, {"name": "StatefulPartitionedCall/siamese_model/bidirectional/forward_rnn/while_1/loop_counter", "shape": [], "dtype": "int32"}, {"name": "StatefulPartitionedCall/siamese_model/bidirectional/forward_rnn/while_1/maximum_iterations", "shape": [], "dtype": "int32"}, {"name": "StatefulPartitionedCall/siamese_model/bidirectional/forward_rnn/time_1", "shape": [], "dtype": "int32"}, {"name": "StatefulPartitionedCall/siamese_model/bidirectional/forward_rnn/TensorArrayV2_5/element_shape", "shape": [2], "dtype": "int32"}, {"name": "StatefulPartitionedCall/siamese_model/bidirectional/forward_rnn/strided_slice_6/stack", "shape": [1], "dtype": "int32"}, {"name": "StatefulPartitionedCall/siamese_model/bidirectional/forward_rnn/strided_slice_6/stack_1", "shape": [1], "dtype": "int32"}, {"name": "StatefulPartitionedCall/siamese_model/bidirectional/forward_rnn/strided_slice_6/stack_2", "shape": [1], "dtype": "int32"}, {"name": "StatefulPartitionedCall/siamese_model/bidirectional/forward_rnn/stacked_rnn_cells/simple_rnn_cell/MatMul_2/ReadVariableOp", "shape": [39, 50], "dtype": "float32"}, {"name": "StatefulPartitionedCall/siamese_model/bidirectional/forward_rnn/stacked_rnn_cells/simple_rnn_cell/BiasAdd_1/ReadVariableOp", "shape": [50], "dtype": "float32"}, {"name": "StatefulPartitionedCall/siamese_model/bidirectional/forward_rnn/stacked_rnn_cells/simple_rnn_cell/MatMul_3/ReadVariableOp", "shape": [50, 50], "dtype": "float32"}, {"name": "StatefulPartitionedCall/siamese_model/bidirectional/forward_rnn/strided_slice_4/stack", "shape": [1], "dtype": "int32"}, {"name": "StatefulPartitionedCall/siamese_model/bidirectional/forward_rnn/strided_slice_4/stack_1", "shape": [1], "dtype": "int32"}, {"name": "StatefulPartitionedCall/siamese_model/bidirectional/forward_rnn/strided_slice_4/stack_2", "shape": [1], "dtype": "int32"}, {"name": "StatefulPartitionedCall/siamese_model/bidirectional/forward_rnn/zeros_1/packed/1", "shape": [], "dtype": "int32"}, {"name": "StatefulPartitionedCall/siamese_model/bidirectional/forward_rnn/zeros_1/Const", "shape": [], "dtype": "float32"}, {"name": "StatefulPartitionedCall/siamese_model/bidirectional/forward_rnn/strided_slice_5/stack", "shape": [1], "dtype": "int32"}, {"name": "StatefulPartitionedCall/siamese_model/bidirectional/forward_rnn/strided_slice_5/stack_1", "shape": [1], "dtype": "int32"}, {"name": "StatefulPartitionedCall/siamese_model/bidirectional/forward_rnn/strided_slice_5/stack_2", "shape": [1], "dtype": "int32"}, {"name": "StatefulPartitionedCall/siamese_model/bidirectional/forward_rnn/transpose_3/perm", "shape": [3], "dtype": "int32"}, {"name": "StatefulPartitionedCall/siamese_model/bidirectional/forward_rnn/TensorArrayUnstack_2/TensorListFromTensor/element_shape", "shape": [2], "dtype": "int32"}, {"name": "StatefulPartitionedCall/siamese_model/bidirectional/forward_rnn/ExpandDims_1/dim", "shape": [], "dtype": "int32"}, {"name": "StatefulPartitionedCall/siamese_model/bidirectional/forward_rnn/transpose_4/perm", "shape": [3], "dtype": "int32"}, {"name": "StatefulPartitionedCall/siamese_model/bidirectional/forward_rnn/TensorArrayUnstack_3/TensorListFromTensor/element_shape", "shape": [2], "dtype": "int32"}, {"name": "unknown", "shape": [39, 50], "dtype": "float32"}, {"name": "unknown_0", "shape": [50], "dtype": "float32"}, {"name": "unknown_1", "shape": [50, 50], "dtype": "float32"}, {"name": "StatefulPartitionedCall/siamese_model/bidirectional/forward_rnn/TensorArrayV2Stack_1/TensorListStack/element_shape", "shape": [2], "dtype": "int32"}, {"name": "StatefulPartitionedCall/siamese_model/bidirectional/forward_rnn/strided_slice_7/stack", "shape": [1], "dtype": "int32"}, {"name": "StatefulPartitionedCall/siamese_model/bidirectional/forward_rnn/strided_slice_7/stack_1", "shape": [1], "dtype": "int32"}, {"name": "StatefulPartitionedCall/siamese_model/bidirectional/forward_rnn/strided_slice_7/stack_2", "shape": [1], "dtype": "int32"}, {"name": "StatefulPartitionedCall/siamese_model/bidirectional/backward_rnn/while_1/loop_counter", "shape": [], "dtype": "int32"}, {"name": "StatefulPartitionedCall/siamese_model/bidirectional/backward_rnn/while_1/maximum_iterations", "shape": [], "dtype": "int32"}, {"name": "StatefulPartitionedCall/siamese_model/bidirectional/backward_rnn/time_1", "shape": [], "dtype": "int32"}, {"name": "StatefulPartitionedCall/siamese_model/bidirectional/backward_rnn/TensorArrayV2_5/element_shape", "shape": [2], "dtype": "int32"}, {"name": "StatefulPartitionedCall/siamese_model/bidirectional/backward_rnn/strided_slice_6/stack", "shape": [1], "dtype": "int32"}, {"name": "StatefulPartitionedCall/siamese_model/bidirectional/backward_rnn/strided_slice_6/stack_1", "shape": [1], "dtype": "int32"}, {"name": "StatefulPartitionedCall/siamese_model/bidirectional/backward_rnn/strided_slice_6/stack_2", "shape": [1], "dtype": "int32"}, {"name": "StatefulPartitionedCall/siamese_model/bidirectional/backward_rnn/stacked_rnn_cells/simple_rnn_cell/MatMul_2/ReadVariableOp", "shape": [39, 50], "dtype": "float32"}, {"name": "StatefulPartitionedCall/siamese_model/bidirectional/backward_rnn/stacked_rnn_cells/simple_rnn_cell/BiasAdd_1/ReadVariableOp", "shape": [50], "dtype": "float32"}, {"name": "StatefulPartitionedCall/siamese_model/bidirectional/backward_rnn/stacked_rnn_cells/simple_rnn_cell/MatMul_3/ReadVariableOp", "shape": [50, 50], "dtype": "float32"}, {"name": "StatefulPartitionedCall/siamese_model/bidirectional/backward_rnn/strided_slice_4/stack", "shape": [1], "dtype": "int32"}, {"name": "StatefulPartitionedCall/siamese_model/bidirectional/backward_rnn/strided_slice_4/stack_1", "shape": [1], "dtype": "int32"}, {"name": "StatefulPartitionedCall/siamese_model/bidirectional/backward_rnn/strided_slice_4/stack_2", "shape": [1], "dtype": "int32"}, {"name": "StatefulPartitionedCall/siamese_model/bidirectional/backward_rnn/zeros_1/packed/1", "shape": [], "dtype": "int32"}, {"name": "StatefulPartitionedCall/siamese_model/bidirectional/backward_rnn/zeros_1/Const", "shape": [], "dtype": "float32"}, {"name": "StatefulPartitionedCall/siamese_model/bidirectional/backward_rnn/strided_slice_5/stack", "shape": [1], "dtype": "int32"}, {"name": "StatefulPartitionedCall/siamese_model/bidirectional/backward_rnn/strided_slice_5/stack_1", "shape": [1], "dtype": "int32"}, {"name": "StatefulPartitionedCall/siamese_model/bidirectional/backward_rnn/strided_slice_5/stack_2", "shape": [1], "dtype": "int32"}, {"name": "StatefulPartitionedCall/siamese_model/bidirectional/backward_rnn/transpose_3/perm", "shape": [3], "dtype": "int32"}, {"name": "StatefulPartitionedCall/siamese_model/bidirectional/backward_rnn/ReverseV2_2/axis", "shape": [1], "dtype": "int32"}, {"name": "StatefulPartitionedCall/siamese_model/bidirectional/backward_rnn/TensorArrayUnstack_2/TensorListFromTensor/element_shape", "shape": [2], "dtype": "int32"}, {"name": "StatefulPartitionedCall/siamese_model/masking/NotEqual_1/y", "shape": [], "dtype": "float32"}, {"name": "StatefulPartitionedCall/siamese_model/masking/Any_1/reduction_indices", "shape": [], "dtype": "int32"}, {"name": "StatefulPartitionedCall/siamese_model/bidirectional/backward_rnn/ExpandDims_1/dim", "shape": [], "dtype": "int32"}, {"name": "StatefulPartitionedCall/siamese_model/bidirectional/backward_rnn/transpose_4/perm", "shape": [3], "dtype": "int32"}, {"name": "StatefulPartitionedCall/siamese_model/bidirectional/backward_rnn/ReverseV2_3/axis", "shape": [1], "dtype": "int32"}, {"name": "StatefulPartitionedCall/siamese_model/bidirectional/backward_rnn/TensorArrayUnstack_3/TensorListFromTensor/element_shape", "shape": [2], "dtype": "int32"}, {"name": "unknown_2", "shape": [39, 50], "dtype": "float32"}, {"name": "unknown_3", "shape": [50], "dtype": "float32"}, {"name": "unknown_4", "shape": [50, 50], "dtype": "float32"}, {"name": "StatefulPartitionedCall/siamese_model/bidirectional/backward_rnn/TensorArrayV2Stack_1/TensorListStack/element_shape", "shape": [2], "dtype": "int32"}, {"name": "StatefulPartitionedCall/siamese_model/bidirectional/backward_rnn/strided_slice_7/stack", "shape": [1], "dtype": "int32"}, {"name": "StatefulPartitionedCall/siamese_model/bidirectional/backward_rnn/strided_slice_7/stack_1", "shape": [1], "dtype": "int32"}, {"name": "StatefulPartitionedCall/siamese_model/bidirectional/backward_rnn/strided_slice_7/stack_2", "shape": [1], "dtype": "int32"}, {"name": "StatefulPartitionedCall/siamese_model/bidirectional/concat_1/axis", "shape": [], "dtype": "int32"}, {"name": "StatefulPartitionedCall/siamese_model/batch_normalization/batchnorm_1/mul", "shape": [100], "dtype": "float32"}, {"name": "StatefulPartitionedCall/siamese_model/batch_normalization/batchnorm_1/sub", "shape": [100], "dtype": "float32"}, {"name": "StatefulPartitionedCall/siamese_model/dense/MatMul_1/ReadVariableOp", "shape": [100, 50], "dtype": "float32"}, {"name": "StatefulPartitionedCall/siamese_model/dense/BiasAdd_1/ReadVariableOp", "shape": [50], "dtype": "float32"}, {"name": "StatefulPartitionedCall/siamese_model/lambda/l2_normalize_1/Sum/reduction_indices", "shape": [], "dtype": "int32"}, {"name": "StatefulPartitionedCall/siamese_model/lambda/l2_normalize_1/Maximum/y", "shape": [], "dtype": "float32"}, {"name": "StatefulPartitionedCall/siamese_model/lambda/Sum/reduction_indices", "shape": [], "dtype": "int32"}, {"name": "__inference_siamese_model_bidirectional_forward_rnn_while_1_body_1759_frozen_5378/siamese_model/bidirectional/forward_rnn/while_1/add/y", "shape": [], "dtype": "int32"}, {"name": "__inference_siamese_model_bidirectional_forward_rnn_while_1_body_1759_frozen_5378/siamese_model/bidirectional/forward_rnn/while_1/TensorArrayV2Read_1/TensorListGetItem/element_shape", "shape": [2], "dtype": "int32"}, {"name": "__inference_siamese_model_bidirectional_forward_rnn_while_1_body_1759_frozen_5378/siamese_model/bidirectional/forward_rnn/while_1/TensorArrayV2Read/TensorListGetItem/element_shape", "shape": [2], "dtype": "int32"}, {"name": "__inference_siamese_model_bidirectional_forward_rnn_while_1_body_1759_frozen_5378/siamese_model/bidirectional/forward_rnn/while_1/add_1/y", "shape": [], "dtype": "int32"}, {"name": "__inference_siamese_model_bidirectional_backward_rnn_while_1_body_1888_frozen_5372/siamese_model/bidirectional/backward_rnn/while_1/add/y", "shape": [], "dtype": "int32"}, {"name": "__inference_siamese_model_bidirectional_backward_rnn_while_1_body_1888_frozen_5372/siamese_model/bidirectional/backward_rnn/while_1/TensorArrayV2Read_1/TensorListGetItem/element_shape", "shape": [2], "dtype": "int32"}, {"name": "__inference_siamese_model_bidirectional_backward_rnn_while_1_body_1888_frozen_5372/siamese_model/bidirectional/backward_rnn/while_1/TensorArrayV2Read/TensorListGetItem/element_shape", "shape": [2], "dtype": "int32"}, {"name": "__inference_siamese_model_bidirectional_backward_rnn_while_1_body_1888_frozen_5372/siamese_model/bidirectional/backward_rnn/while_1/add_1/y", "shape": [], "dtype": "int32"}, {"name": "__inference_siamese_model_bidirectional_forward_rnn_while_body_1500_frozen_5375/siamese_model/bidirectional/forward_rnn/while/add/y", "shape": [], "dtype": "int32"}, {"name": "__inference_siamese_model_bidirectional_forward_rnn_while_body_1500_frozen_5375/siamese_model/bidirectional/forward_rnn/while/TensorArrayV2Read_1/TensorListGetItem/element_shape", "shape": [2], "dtype": "int32"}, {"name": "__inference_siamese_model_bidirectional_forward_rnn_while_body_1500_frozen_5375/siamese_model/bidirectional/forward_rnn/while/TensorArrayV2Read/TensorListGetItem/element_shape", "shape": [2], "dtype": "int32"}, {"name": "__inference_siamese_model_bidirectional_forward_rnn_while_body_1500_frozen_5375/siamese_model/bidirectional/forward_rnn/while/add_1/y", "shape": [], "dtype": "int32"}, {"name": "__inference_siamese_model_bidirectional_backward_rnn_while_body_1632_frozen_5373/siamese_model/bidirectional/backward_rnn/while/add/y", "shape": [], "dtype": "int32"}, {"name": "__inference_siamese_model_bidirectional_backward_rnn_while_body_1632_frozen_5373/siamese_model/bidirectional/backward_rnn/while/TensorArrayV2Read_1/TensorListGetItem/element_shape", "shape": [2], "dtype": "int32"}, {"name": "__inference_siamese_model_bidirectional_backward_rnn_while_body_1632_frozen_5373/siamese_model/bidirectional/backward_rnn/while/TensorArrayV2Read/TensorListGetItem/element_shape", "shape": [2], "dtype": "int32"}, {"name": "__inference_siamese_model_bidirectional_backward_rnn_while_body_1632_frozen_5373/siamese_model/bidirectional/backward_rnn/while/add_1/y", "shape": [], "dtype": "int32"}]}]}